src/backend/model.pth (torch, 224476 bytes, 10 tensors)

encoder.weight_ih_l0 f4 [256, 16]
00000000: b7fc 653e 9c9f 86bd 75a6 863e 3b8c 31bd
00000010: 6d99 9d3e 33b8 eb3d 8be5 4e3d 2847 ac3e
00000020: df33 713e b6e0 073e 48fd da3d b224 123d
00000030: 9570 d7bc 9beb e6bd 2229 bbbd c122 2d3c
00000040: 5d6f a23e 78a3 3a3e 2d25 8a3e 2968 003e
00000050: fdb2 b53e 0a34 8fbb 27f4 83bd 5f20 ce3d
00000060: 73f7 5a3e 4871 a13e 6e66 043e 1f40 8ebd
00000070: 7b22 16bc f620 aa3d d7f2 cebd 9586 42be
00000080: 2b76 8d3e fd99 2e3e 288c 9a3e a04d 8f3d
00000090: 7316 e43d e672 743e 0cc3 efbb ab1c 9d3e
000000a0: eb15 403e d217 bcbc f0dc 6d3d 0c75 30be
000000b0: 5d6a 96bd 7070 3cbd 3c40 85bd fb9a d23c
000000c0: b0e0 023e 2c75 8bbe a756 133d d969 093e
000000d0: 8525 073e 294a 3e3e cf51 823e 2edb 413e
000000e0: 0d64 fa3d 4e0e 483e ac7f b53c 6032 39be
000000f0: 3ea5 60bd 28fb 7f3d 9f21 2bbd 3c1c 9fbd
00000100: 4014 1c3e f796 e23d 4faa d13d 662a 403d
00000110: 0207 af3e ebc3 993d 0423 d6bd 20a5 763d
00000120: 472a 563e 9ade 6a3c 3ff4 2c3d 0193 5c3d
00000130: 184d d93d e643 503c 84c4 02be 756e 05bd
00000140: 0f8a 08be 40a2 03be 86f5 f2bb 0202 443e
00000150: f894 153e f203 9d3d 81b1 aa3d e263 c53d
00000160: 0382 833e a48c 3d3e 4422 6a3d f3ac aebd
00000170: d733 74bd fcd6 9e3d c361 803e 9fd9 373e
00000180: c561 863b 61e8 a63e d64c e83d 887e 823e
00000190: 77c8 3f3d d1ab 073e 0886 833c e8b1 513e
000001a0: 1806 843e 14f0 813d d26c a7bd 49c7 5ebe
000001b0: 99ad 9abb 2424 463d 1eb6 eb3c 3b4f 12bd
000001c0: c114 cdbc b9f0 453d af46 083e 9fca 303e
000001d0: 6c9d 7f3e 1ac0 753b cc5b f13e 2e77 f3ba
000001e0: b4af f83d 6754 963d 078c 21be d104 febb
000001f0: 4cb1 e23b 231e 9dbd 8c97 3ebe 9810 8ebc
00000200: da6c ee3d 648d 873d a3ba 0a3e ed35 123e
00000210: d2f4 833e cac7 fc3c 6584 eb3e d0eb 723d
00000220: 9039 123e a94c a83d e071 fc3d 343c 05bd
00000230: 581f 52bd 8f36 91bc dd56 943e 4ca9 0cbe
00000240: 0ad3 ff3d dc0d 193e 8b4e 1c3e 1ef0 a53e
00000250: 9be6 443e d317 223e ae57 013e 2985 213e
00000260: 679b 523e e0fd b63d 007b eb3d 65d7 8f3d
00000270: 5360 cdbd dded d7bd 3416 6fbd f2c0 40be
00000280: 247d 493e 5e51 77bd 6859 583e c598 9c3e
00000290: e7aa bd3e 7bb5 283e 94bf 013f 06df 1f3e
000002a0: 8835 e13d de95 823d e151 e83d 484d f63d
000002b0: d460 3f3d 16f1 aa3d 281c 0cbd 5cfa 34bd
000002c0: 101c 943d 2ed2 3c3e 7303 773d 4042 593e
000002d0: e4dd af3e e61e 163e 24c1 f13e 2c60 af3d
000002e0: c1fe 883e 538a acbd 1f88 063d a6e3 d33c
000002f0: 6233 2e3e c0f6 f73d fd7a 133d 5067 3b3e
00000300: 4165 a33e 448b c43e 9539 943e e934 e43d
00000310: 093e 953e 203b 753e b64b 3fbe b23a c8bd
00000320: 580f 443e 751c 1e3d f637 c33b 4d17 22be
00000330: 923d f43d 6334 88be 3059 d73d 7d74 73be
00000340: f8d3 033e 23e9 a93e b71b 2b3e 7b1c 0dbe
00000350: b888 ae3e 01fa a93e 11e5 e03d 46ad 803e
00000360: 2afd 973d 69bc 7dbd c749 3f3e 0cbf 4abd
00000370: bdef 013e 10a4 c63d 80a8 e9bd 0535 e5bc
00000380: 3f39 b53e b23e 29be de30 0f3e f298 733e
00000390: 7136 1b3d 12cf 123e 1e19 a53d b63a 08bd
000003a0: 7748 623e 93c5 ab3d 16b3 193e 4cf6 9b3c
000003b0: 0b2a 92bd 49b5 a5be d001 febc c712 053e
000003c0: 24a0 04bd 9aab df3e ea17 57bd f6ab 383e
000003d0: 4ad3 233e 356e ae3e 4a39 9fbd 526c cfbc
000003e0: ccc5 403e 4ff1 8c3d 2357 e5bc 1d04 c93d
000003f0: 61cf df3d 6449 66be d339 783d 51de 49bc
0.22459684 -0.06573412 0.26298872 -0.043346625 0.30781117 0.115097426 0.050511878 0.33648038
0.23554944 0.13269314 0.10692841 0.035679527 -0.0262988 -0.11275407 -0.09138705 0.010567368
0.31725588 0.18226421 0.26981488 0.12539734 0.3548812 -0.004370217 -0.06443053 0.10064768
0.21383457 0.3153174 0.12929699 -0.06945824 -0.009163494 0.08307068 -0.10104912 -0.18996651
0.27629218 0.1705093 0.30185056 0.06997228 0.11137094 0.23871955 -0.0073169526 0.30685934
0.18758361 -0.022960577 0.05807203 -0.1723215 -0.07344506 -0.046005666 -0.06506392 0.025708666
0.12781024 -0.27237833 0.03597131 0.13419284 0.13197906 0.18582977 0.2545304 0.18931267
0.122261144 0.19536707 0.022155605 -0.18085623 -0.054845087 0.06249538 -0.04178011 -0.07769057
0.152421 0.110639505 0.10237562 0.046915434 0.34185034 0.075080715 -0.104558975 0.06021607
0.20914565 0.014335299 0.04222512 0.05385113 0.106104076 0.012711501 -0.12770277 -0.032576043
-0.13333915 -0.12854862 -0.0074145226 0.19141391 0.14607608 0.07666768 0.083346374 0.09638192
0.2568513 0.18510681 0.057161584 -0.08529081 -0.05961975 0.07755849 0.25074586 0.1795411
0.0041010105 0.32599166 0.1134278 0.2548716 0.046822038 0.13249137 0.016055122 0.20478022
0.257859 0.063446194 -0.08175053 -0.21755709 -0.0047204015 0.04837431 0.028773364 -0.03572009
-0.02503431 0.048325274 0.13308214 0.17264794 0.24962395 0.0037498535 0.47140348 -0.0018574947
0.12142888 0.07340317 -0.15776072 -0.007752039 0.006918108 -0.07671764 -0.18612498 -0.017341897
0.116418555 0.06618765 0.13547759 0.14278384 0.2577272 0.030856986 0.45999447 0.05930692
0.14279771 0.08217747 0.123264074 -0.032528117 -0.051299423 -0.01772621 0.2897252 -0.13736457
0.124914244 0.14946693 0.15264337 0.32409757 0.19228594 0.158294 0.12631103 0.15773453
0.20567094 0.089351416 0.1149807 0.07023505 -0.10028138 -0.10543416 -0.058370784 -0.18823603
0.19676644 -0.060380332 0.21127856 0.30585304 0.3704445 0.1647548 0.5068295 0.1561242
0.109965384 0.06376241 0.11343742 0.12026459 0.046723202 0.08346765 -0.03420654 -0.044184074
0.07231915 0.18439552 0.060306024 0.21216679 0.34348977 0.14660224 0.47217667 0.08563265
0.26756862 -0.08424821 0.03284466 0.025865387 0.17011788 0.12107611 0.036005963 0.1830113
0.31913188 0.383875 0.28950182 0.11142904 0.29148892 0.23948336 -0.18681225 -0.0977682
0.19146478 0.038601357 0.005957599 -0.15829201 0.11925806 -0.26602468 0.10515058 -0.23774906
0.12873828 0.33185682 0.16709791 -0.13780396 0.34088683 0.3319855 0.10981191 0.25132197
0.07421334 -0.06194726 0.18680488 -0.049498603 0.12689109 0.09699261 -0.11409092 -0.027979383
0.35395238 -0.16527823 0.13983485 0.23788813 0.037893716 0.14336804 0.08061431 -0.033259116
0.22097956 0.08387294 0.15009722 0.019038342 -0.07136925 -0.32364872 -0.031006724 0.12995444
-0.032379285 0.4368561 -0.05251304 0.18034348 0.15998569 0.34068456 -0.07774599 -0.025320206
0.18825454 0.068819635 -0.027995652 0.09815238 0.10928226 -0.22488934 0.06060202 -0.012321071

encoder.weight_hh_l0 f4 [256, 64]
00000000: b09f 89bd 2cb7 6d3d 80f3 b8ba a44d 07bd
00000010: 7028 cdbd 7842 8ebc 5ab0 933d c0db aebb
00000020: fae0 e7bd 0e0e e0bd b44e 353d e0cc 6d3c
00000030: 60e4 003c 002c 4fba 489f e73d 20a4 f6bb
00000040: 4488 9e3d a4d5 92bd 48e9 de3c dc9e c53d
00000050: 1862 7bbd 60bd 8b3d 3082 a73c dc27 ce3d
00000060: d077 653c 521a fa3d 40c5 873b 28a8 eb3c
00000070: c0cf fc3d ac02 83bd 3801 833d 6a79 a3bd
00000080: ba0f fbbd 9ce5 21bd 2a85 e63d d2fd ab3d
00000090: a498 d73d 8811 363d 226f aa3d 80f4 803d
000000a0: 981a 473d 6049 8a3d b862 1c3d 4acc c53d
000000b0: 700b 283c 6419 a73d 389e fcbd a20c c63d
000000c0: 186c ec3d 744e 513d 0ab1 c13d b8e4 fabd
000000d0: e0db 993c d844 273d 0037 883c d2ef c2bd
000000e0: 1886 99bc 9856 ba3c 208e f7bc 200d 833c
000000f0: fa1c d4bd 5203 a63d 485f bf3d 50a8 0f3c
00000100: e479 22bd ace9 a73d 583b b8bc d844 a13c
00000110: 80bc b03c ba26 893d 40b0 29bd e2d2 cabd
00000120: ced8 c03d 1804 be3c bce9 06bd 68fe e6bc
00000130: 3e7f 9ebd d410 e5bd 2cee 9ebd a481 19bd
00000140: e2bc a53d 2aa9 e9bd ae3c 853d c8ec 1e3d
00000150: bc67 463d 5af5 f2bd 50dd 49bc ba0a fdbd
00000160: a2b8 d53d 8462 e03d e0ba a0bc 6e45 f93d
00000170: d297 e93d 3443 43bd dc51 023d 8012 c0ba
00000180: c6aa c83d e445 833d c832 b03d 205d fbbb
00000190: 00ba ec3d 786c 343d a20c b8bd 0cd2 6bbd
000001a0: d839 c53d b655 af3d b49b 0abd 8808 de3d
000001b0: 0c69 cb3d aef2 853d a0c4 5fbc 3c1f 8ebd
000001c0: babf a53d 9a8b c0bd 1443 5ebd d070 eebc
000001d0: 5469 3e3d 1c1a 683d e829 39bd bade d1bd
000001e0: 8ec5 913d a8f8 463d f048 323c 6c6e 3bbd
000001f0: d4a9 cf3d 6c4e 18bd 00b8 5d3b 1c3c 0fbd
00000200: a089 f53b 285d adbd ec04 b23d ecc1 a4bd
00000210: 6069 bebc b0dd b73c c2a3 af3d f4b0 693d
00000220: 50ec 84bd 3490 a1bd 5675 bc3d e64f fe3d
00000230: 7c50 54bd 289d 433d 64bd 64bd beb7 a43d
00000240: fc31 6ebd 80f0 a53a b82c 7c3d d8fb 743d
00000250: e47d 8cbd 5068 45bc e062 c33b 24ec f53d
00000260: 34bf aa3d f415 043d 0082 b43a fa2f 94bd
00000270: 2081 623d a020 963c 5e2f aa3d 283d d83c
00000280: 0889 823c 20ef d93b be19 e13d 9ce3 f23d
00000290: e8bc f5bd aa5b f33d e087 aebd 120a bdbd
000002a0: e874 bd3d 2cd6 693d f0a9 d73c 9ae3 da3d
000002b0: 9c7f 383d 6066 b1bc cec0 fbbd 00b0 6fbb
000002c0: fc20 193d 9e9a 8c3d b451 e13d 907d d7bc
000002d0: 3ec6 b03d d0b5 babd 40f9 b03c dee9 9c3d
000002e0: 84b5 a5bd e44d 763d 94fe 593d 0206 bdbd
000002f0: 281c a3bc 90b6 4f3d d0a4 eabd 8eda adbd
00000300: 3437 063d 56e7 913d f021 1d3c 7617 ef3d
00000310: bc4e 143d 6633 a0bd f04c 2ebc 64da 68bd
00000320: fce2 e0bd 5aaf e7bd cc35 9abd 4005 8f3d
00000330: 8c5a 01bd 9249 c8bd f8d7 413d e4a6 61bd
00000340: 5aee a1bd 5e23 b5bd a471 933d 0095 33bd
00000350: 1819 92bc 7aaf ae3d c0ad 8abb e2aa b0bd
00000360: 68b9 a73d 88dd c8bc 1c6e afbd 009a fd3d
00000370: 9c02 e73d 5454 77bd 20c3 6abc 84db 473d
00000380: a6ff c63d a02e a03c d8c7 273d 30bc 40bd
00000390: bee7 f1bd d4f9 093d 1434 75bd d052 423d
000003a0: a001 773c 504e 9ebd cecb a73d 6852 e1bc
000003b0: de51 90bd b4ec f03d 0649 b73d 9421 62bd
000003c0: 5e1b f2bd b085 4b3d 2e82 d33d 8092 7fbc
000003d0: 7818 923d 6070 76bc e0dd a9bd 2001 113c
000003e0: 50df c3bd cc73 74bd 6649 953d c0fa abbc
000003f0: 007c 483a 0090 343d 7cce e8bd b8de 00bd
-0.06719911 0.058036014 -0.0014110655 -0.03303303 -0.100174785 -0.01736568 0.07211371 -0.005336255
-0.11322208 -0.10940181 0.04426451 0.014514178 0.007866949 -0.000790298 0.11309677 -0.0075268894
0.07740834 -0.07169655 0.027210847 0.09649441 -0.061372846 0.0682323 0.02044782 0.10066196
0.014005616 0.122120515 0.004143387 0.028766707 0.12344313 -0.06396994 0.06396717 -0.07982142
-0.12258859 -0.039525613 0.11255868 0.08398022 0.10527161 0.044450313 0.08321978 0.06296635
0.048609346 0.067522764 0.038180083 0.09658106 0.010256633 0.0815914 -0.12334865 0.09670378
0.11544055 0.05110021 0.09457596 -0.12250656 0.018781602 0.04083714 0.016627789 -0.09518398
-0.018740699 0.02274637 -0.030219138 0.01599747 -0.10357089 0.08106102 0.09344345 0.008768156
-0.039667025 0.08198866 -0.022489235 0.019686148 0.021574259 0.0669684 -0.04142785 -0.09903504
0.09416352 0.023195311 -0.03293775 -0.028197482 -0.07739113 -0.1118485 -0.077602714 -0.03747715
0.08092667 -0.114092186 0.06505714 0.03880003 0.048438773 -0.11863203 -0.012320831 -0.123555616
0.104356065 0.1095629 -0.019620359 0.12171446 0.114059106 -0.04767151 0.03181635 -0.0014653951
0.097981974 0.06409815 0.08603436 -0.0076710135 0.11558914 0.044048756 -0.089867845 -0.057573363
0.096301734 0.0856127 -0.033839896 0.10841471 0.099321455 0.06540428 -0.013657719 -0.06939551
0.080932096 -0.09401627 -0.05426319 -0.029106528 0.046487167 0.056665525 -0.04520598 -0.1024756
0.07117759 0.04857698 0.0108816475 -0.045759603 0.10139814 -0.037184164 0.0033831596 -0.034969434
0.007493213 -0.08465034 0.08692345 -0.080448 -0.023243606 0.022444576 0.08576156 0.05705352
-0.064903855 -0.07888833 0.092020676 0.12417583 -0.05183457 0.047757298 -0.05584468 0.080428585
-0.058153138 0.0012660176 0.061566085 0.05981049 -0.06859949 -0.012048796 0.0059627146 0.12007931
0.0833725 0.0322475 0.0013771653 -0.07235713 0.055298924 0.018326104 0.08309816 0.02639635
0.015934482 0.0066508204 0.10991238 0.11859819 -0.11998922 0.11882718 -0.0852201 -0.092304364
0.09250814 0.057089016 0.02632615 0.10687943 0.045043573 -0.021655262 -0.12292634 -0.003657341
0.037384972 0.068654284 0.11001912 -0.02630499 0.08631562 -0.09116709 0.021603227 0.07661794
-0.08091262 0.060132876 0.0532213 -0.092296615 -0.019910887 0.050711215 -0.11457217 -0.084889516
0.03276749 0.07124202 0.009590611 0.11674397 0.0362079 -0.078223035 -0.0106384605 -0.0568489
-0.10980794 -0.113127425 -0.07529792 0.06983423 -0.031580493 -0.097796574 0.047325104 -0.0550908
-0.0790679 -0.088446364 0.071994096 -0.04384327 -0.017834231 0.08529563 -0.0042321384 -0.08626343
0.0818966 -0.024519697 -0.085659236 0.12382889 0.112797946 -0.060383156 -0.014328748 0.04879333
0.0971673 0.019553483 0.04096207 -0.04705447 -0.118117794 0.03368552 -0.05986412 0.047442257
0.015076071 -0.07729781 0.081931695 -0.027505115 -0.07046865 0.117638975 0.08949475 -0.055207804
-0.11821626 0.04968804 0.10327564 -0.015598893 0.07133573 -0.015041441 -0.082942724 0.008850366
-0.09564078 -0.059680745 0.0728939 -0.02099359 0.0007647872 0.04408264 -0.11367509 -0.0314624

encoder.bias_ih_l0 f4 [256]
00000000: 76c1 a73e bbfd 103e 5efc 943e 3141 8b3e
00000010: 15f0 1d3e 1342 c43d d489 993e 0234 8e3d
00000020: 14ea 583e 575f 603e a2a4 af3d 699c 923e
00000030: c4e8 313e 5419 843e d7d9 223e e637 363e
00000040: 675d 533e 42ec ae3e 3565 ae3e 663d 773e
00000050: c713 3f3e dc3f fd3d 8549 e53d 6683 d93d
00000060: 58a6 733e ea83 823e 0757 523e 6a62 803e
00000070: 4184 f33d 6cc2 863e e3c7 1e3d dfc9 9e3e
00000080: e957 803e 2449 273e 8892 ee3d 6828 4a3e
00000090: 7131 9e3e 53ee f73d 4b33 4e3e 7f1a 293e
000000a0: 43a9 213e 8bbe 233e 9f85 0d3e 1006 823e
000000b0: 3b5e 7c3e af21 a93d 19bb 093e 37d2 8f3e
000000c0: 59f7 853e 4e6d 963e aa94 7e3e c856 ca3d
000000d0: d7e1 6b3e 66f4 753e fe31 6e3e e034 8d3e
000000e0: c4ee 353e 9d15 693e 5a93 7e3e d55c 593e
000000f0: e357 463e c7bd f73d 795b 6e3e c5ba 983e
00000100: 5e24 c53d f0cc 553d beaf aabd 34ae 1a3d
00000110: 8060 983d 48d2 f1bc 8036 e1ba 40ac 7c3b
00000120: 7403 dbbd 4e3a 8c3d 2834 c43d be3e ac3d
00000130: 106e 5cbc f850 a63c 8ccb fdbd b463 ce3d
00000140: f83c 7e3d 40ad 33bc c812 7c3d 98f1 a73c
00000150: 681f 633d ccca ebbd 0e1b bb3d 3077 69bd
00000160: 8070 b6bb e439 493d f899 25bd 0850 95bc
00000170: 70d5 673c 56d8 dc3d 087c e33d eeb4 d6bd
00000180: c242 cdbd 3e12 91bd 609b cc3c d879 d7bc
00000190: b0c0 3b3d 544b 22bd ba9d e93d 6c16 bb3d
000001a0: 2c15 22bd e644 c9bd 3edb f23d e0c8 9fbd
000001b0: 6a2b b9bd 7079 0abc 9272 ea3d 64df cf3d
000001c0: 1c4d 993d e84c bf3d 587c 70bd 1ca7 a6bd
000001d0: e472 853d 8213 edbd ee50 c53d d08e 5b3c
000001e0: 4426 d13d 62d7 a9bd 64ad e9bd 94e4 653d
000001f0: 1465 dd3d 542f afbd 88eb de3d b0d5 41bd
00000200: 8c68 fabd 7b14 be3c b2c1 5d3e cc84 1bbe
00000210: a61b 0c3e 9591 e3bc 4fc1 463c 3c18 033e
00000220: 75cf ffbd 7f68 3cbd 7534 893d 1a0a 16be
00000230: 60db 3a3e 392c 60be d904 583d 5847 94bd
00000240: 2136 7b3b 632a 3cbe 1103 12bd b750 433d
00000250: 6e3b 333e a383 f33d f4ae 543d f36d 753e
00000260: 08a4 cdbd 7fe9 ffbd c809 ecbd c973 34bc
00000270: 2ab9 4dbe 0321 41be 2f50 3ebe 2219 b6bc
00000280: 7136 e63b 6fcf 253e 6f03 19be b991 f5bd
00000290: 6d6f a23d 9aba 1fbe 4851 363c 5510 04be
000002a0: d545 a2bc 7316 74be 21a0 36bb 1571 66bd
000002b0: 7acb 87bd 7ed9 3b3d da8b 063e 7326 45be
000002c0: 9916 c2bd 1b43 ce3d 7831 e3bc c949 2cbd
000002d0: 2f2d 063e b382 4e3e f83f bbbc 4a14 9b3b
000002e0: 1067 25be e409 ac3a 5201 9bbd ce22 2ebd
000002f0: c6b5 6d3d d099 c7bd 244e 12be dc85 9c3c
00000300: a2be 4c3e b0ee 263e b91d c63d a2b5 373e
00000310: 7bfa 553e fcf5 943e 27e7 a43e 0e11 043e
00000320: a953 8c3e 3eee 563e 83ed 723e 4c7c 403e
00000330: 97d8 8a3e 8cb3 7a3e 69b6 723e 6e92 263e
00000340: b31c 9e3e ad9a 753e 919d 973e 5e49 b83e
00000350: fd61 a13e afff 1d3e e3be 773e aad0 0a3e
00000360: a9d5 8f3e e41e 643e 3cf4 623e 4007 883e
00000370: ab8c 8f3e 97db 0c3e 572b 5b3e c2d5 373e
00000380: e898 8d3e 4ff1 603e 49f1 443e fd06 a23e
00000390: efde 0b3e 9b60 8b3d f347 573e ec9a 113e
000003a0: 3c23 2d3e 417c ce3d 8c25 6f3e 04f0 393e
000003b0: f1be 263e 4a8e e73d f7bb 043e 2f95 ed3d
000003c0: a0af b83e a4c2 2f3e 3afc 9e3e c572 903e
000003d0: 3ff9 4b3e 09fe 913d d9f3 a43d ad32 963e
000003e0: 4e5c 5e3e 7603 2c3e 7615 603e e7d0 8d3d
000003f0: fa34 123e a63f 0a3e 28fa 6c3e 1c76 783e
0.32764786 0.1415929 0.2909879 0.27198175 0.15423615 0.09582915 0.29987967 0.069435135
0.21183044 0.2191137 0.08576323 0.28634956 0.1737395 0.25800574 0.15903412 0.17794761
0.20641099 0.34164625 0.3406159 0.24144515 0.18659888 0.12365696 0.11195663 0.106207654
0.23793924 0.25491267 0.20541011 0.25075084 0.1189046 0.26320207 0.038764846 0.3101339
0.2506707 0.16336495 0.11649042 0.19741976 0.30897096 0.121060036 0.20136754 0.16514014
0.15787224 0.15990655 0.13820504 0.2539525 0.24645321 0.08258378 0.13450278 0.2809007
0.26165274 0.29380268 0.24861398 0.098798335 0.2303537 0.24019012 0.23261258 0.27579403
0.17766863 0.22762151 0.24860898 0.21226819 0.19369464 0.12096744 0.23277082 0.29829994
0.09626077 0.052197397 -0.083343014 0.03776379 0.07440281 -0.029519215 -0.001718238 0.0038554817
-0.10694018 0.06847058 0.095802605 0.084104046 -0.013453975 0.02030228 -0.12392339 0.100776106
0.062069863 -0.010966599 0.06154135 0.020500943 0.055449873 -0.1151329 0.0913602 -0.05699843
-0.0055676103 0.049127474 -0.04043004 -0.018226638 0.014150009 0.1078345 0.111076415 -0.10483728
-0.10022499 -0.070835575 0.024976432 -0.026303217 0.045838058 -0.03962262 0.11407037 0.09135136
-0.039570972 -0.098275945 0.118582234 -0.07801986 -0.09041484 -0.0084518045 0.11447634 0.1015003
0.074854106 0.093408406 -0.058712333 -0.08137342 0.06516054 -0.115759864 0.09634577 0.013400748
0.10212377 -0.08293034 -0.11410025 0.056126192 0.10810295 -0.08553949 0.10884768 -0.04732293
-0.12226972 0.023203125 0.2165592 -0.15187377 0.13682422 -0.02777938 0.012131049 0.12802213
-0.12490741 -0.045998093 0.066994585 -0.14652291 0.18247747 -0.2189187 0.052738998 -0.0724017
0.0038331824 -0.18375544 -0.035647456 0.047684398 0.1750314 0.11890342 0.05192466 0.23967724
-0.10041052 -0.12495708 -0.11525303 -0.011013933 -0.20090166 -0.18860249 -0.18585275 -0.022228781
0.007025533 0.16192411 -0.14942716 -0.11990685 0.07931409 -0.15598527 0.011127777 -0.12896855
-0.01980869 -0.23836689 -0.002786644 -0.056260187 -0.06630607 0.045861714 0.13139287 -0.19252948
-0.094769664 0.10071393 -0.02773355 -0.042062555 0.13103174 0.20167045 -0.022857651 0.0047326433
-0.16152596 0.0013125506 -0.07568611 -0.04251366 0.05803468 -0.09746134 -0.14287621 0.019106798
0.19994596 0.1630199 0.09673638 0.17940381 0.20896332 0.2909392 0.32207605 0.12897131
0.27407578 0.2098932 0.23723416 0.18797415 0.2711837 0.24482554 0.23702396 0.16266796
0.3088127 0.23984785 0.296124 0.35993475 0.31520072 0.15429567 0.24193911 0.13556162
0.28092697 0.22277409 0.2216348 0.2656803 0.2803701 0.13755642 0.21403252 0.17952636
0.2765572 0.21967052 0.19232668 0.31645957 0.13659261 0.068055354 0.2102354 0.14219254
0.16907972 0.10082293 0.23354167 0.18157965 0.16283776 0.11306436 0.12962328 0.1160072
0.3607149 0.17164093 0.3105181 0.28212562 0.19919299 0.071285315 0.08054323 0.29335538
0.21714899 0.16798195 0.21883187 0.069246106 0.14278021 0.13500842 0.23142302 0.24263805

encoder.bias_hh_l0 f4 [256]
00000000: 416e fe3d 8180 ea3d bdf5 2e3e e703 193e
00000010: d919 1b3e 6812 7a3e cce7 813e 9c24 0d3e
00000020: 0704 963d 2fbf f83d b6bb af3d cbd3 5f3e
00000030: 3780 eb3d 4eec a63d 9164 e83d 5506 a93d
00000040: 95f7 a93d f512 793e 5753 523e 44e0 863e
00000050: ca95 9d3e 4d5c 1a3e bdc3 0c3e c4fa c83d
00000060: e439 433e 2a64 d23d ded0 783e 2781 193e
00000070: c347 803e 13c6 103e bab2 6f3e 0319 643e
00000080: 43b6 193e 30a5 313e ba86 913d 9e52 0b3e
00000090: 32a2 833e d67a 193e 9ff4 713e fe07 873e
000000a0: 5761 923e dc22 443e 898e 0b3e f302 513e
000000b0: f847 6f3e 1f5e 343e f791 363e a096 9c3e
000000c0: e7b5 a63e 6a59 1f3e 4ed9 a43d 4f3e db3d
000000d0: e990 513e 4de3 c33d 1ca4 6b3d 3ad0 183e
000000e0: f2f1 8f3e f57b ae3d f434 333e 2c82 8c3d
000000f0: 25e9 0a3e d756 2e3e f99f cb3d d9bb d63d
00000100: a88c ef3d be65 a83d f22b d3bd c0a3 fd3b
00000110: 3854 bfbd 5c7e acbd 88e4 b3bd e0e4 38bd
00000120: aae2 f1bd 58b7 f23c 2e3a c73d f085 54bc
00000130: 92f9 f63d e877 ccbd 90e5 c5bd 007c fe3a
00000140: 78dc c4bd dc96 af3d f808 6bbd b0e0 07bc
00000150: 0803 c9bd 40a5 d2bd 0031 a6bd c081 ba3b
00000160: 60ca 5cbc b065 bfbd c4cd 733d 4c1a 8dbd
00000170: eca8 2ebd 70c1 5bbd 5062 193d f848 873c
00000180: a433 123d aa0f 85bd e4c0 e3bd ec73 fabd
00000190: a8be 28bd 2046 e8bb 009b 6fbc c227 ae3d
000001a0: b85d bdbd 2ab7 ef3d cec2 a03d 4c92 a03d
000001b0: e8a9 793d 60f6 793c c02c 7b3b 1c9d bf3d
000001c0: ec5c f53d 1059 403c 548d a33d 5206 8f3d
000001d0: 6671 bfbd 54e8 4dbd a040 f4bc 3839 ad3c
000001e0: c049 61bd d65d d8bd 56f8 d93d c01d 843c
000001f0: 64b7 1fbd b618 fb3d b865 483d c407 cb3d
00000200: f092 16be 42cb 213e aa52 183e 35c4 30be
00000210: 6279 85bd cb0a 17be 58e1 fcbd 62d8 cbbc
00000220: 4066 febc 4848 1dbe 9b1b c83d bbc0 c63c
00000230: 9cf0 483e 77ac cbbd 3097 20be 2e83 1ebe
00000240: 929d e3bd 7ab8 fdbd 021d 1bbc b9f4 96bc
00000250: 4354 5a3d 1163 3c3d 7b3d f3bd 3389 2d3e
00000260: ca32 86bd e61b 4abd 8513 0ebe 8a6b 013e
00000270: 1f5c 0fbe fbe0 59be 8642 aabc 6460 473e
00000280: 7961 183e 339c 3a3e f175 1abe 411f 9dbd
00000290: 4b2f 983c 81be aa3c f43b c43d 9724 10bc
000002a0: 6c37 9d3d dae4 a4bd ae74 963c bb92 253d
000002b0: dc35 1fb7 39b6 313e f6fe d03d abeb 43be
000002c0: a59f 7f3d e6ca 5d3e ad7f ffbd a434 12be
000002d0: 8b7e 67bd 516c 7f3e 5866 ae3d 6ecb 5f3e
000002e0: 806d bebc 70b7 b33d a9a7 83be 04a9 3ebe
000002f0: c5a3 1b3e 723d 03be 4042 13be d232 2cbe
00000300: 4035 293e 5e71 493e 5e82 653e ba83 823e
00000310: 7f07 173e 20b0 953d 1369 863e dcb5 d83d
00000320: 5bad 213e d81e 8a3e 0089 a53e 22f3 6a3e
00000330: 2419 953e a1c1 153e cb55 563e ab20 873e
00000340: 40bb a73e 71c4 423e 8702 9a3e 0284 933e
00000350: 0ddd ab3e 52d4 a33d 6468 0f3d 1608 1f3e
00000360: a1e9 3e3e eefd 043e 8806 333e dd1a 303e
00000370: a8ee bf3d 56bc cd3d 7c36 d93d 1622 863e
00000380: 11c6 e73d 341b f43d b199 6a3e a6c6 073e
00000390: cae1 823e 5eb9 1e3e 7369 223e 5649 b33e
000003a0: 768c 693e 6dc7 993e 407f 023e ca8a 2c3d
000003b0: ed3e 8a3e 8ccb 123e 5ef4 523e 6e15 913e
000003c0: a1c7 443e 9a2e 773e 574b 2b3e 61e5 8e3d
000003d0: d960 633e 9d45 6d3e 20af 8a3e e670 9b3e
000003e0: 6fcd 0f3e c3d1 723e 94cc 823e e58e 5e3e
000003f0: 202c ad3e 6cd9 313e 8e91 323e 32fe 843e
0.12423373 0.114502914 0.17085929 0.14942895 0.15146579 0.24421084 0.2537216 0.13783497
0.07324987 0.121458404 0.08580725 0.21858136 0.114990644 0.0815054 0.113473065 0.08253161
0.08299176 0.24323638 0.20539604 0.26342976 0.30778342 0.15074272 0.13746543 0.09813455
0.19065052 0.10273011 0.24298427 0.14990674 0.2505475 0.1413806 0.23408023 0.22275166
0.15010934 0.1734817 0.07105775 0.13605735 0.25709683 0.14988264 0.23628472 0.26373285
0.2858989 0.19153923 0.13628592 0.20411281 0.23367298 0.1761403 0.17829119 0.30583668
0.32560655 0.15561453 0.0804926 0.10705244 0.20465435 0.095648386 0.057529554 0.14923182
0.28114277 0.08519737 0.17500669 0.06860766 0.135655 0.17025314 0.09942622 0.10485048
0.1169675 0.08222531 -0.10311116 0.007740468 -0.09342235 -0.08422539 -0.08783823 -0.045140147
-0.11810811 0.02962844 0.09727894 -0.012971386 0.120593205 -0.09983808 -0.09662926 0.0019415617
-0.096123636 0.08573696 -0.0573816 -0.008293316 -0.09815031 -0.10285425 -0.08114815 0.005691737
-0.013475984 -0.09345567 0.059522405 -0.06889781 -0.042641565 -0.053651273 0.037447274 0.016514286
0.03569378 -0.06497128 -0.11120775 -0.122291416 -0.04119745 -0.0070884377 -0.014624357 0.08503677
-0.09246391 0.11704858 0.07849656 0.07840404 0.06095305 0.015256494 0.0038326234 0.09356138
0.11980614 0.011739984 0.079859406 0.069836274 -0.09347801 -0.050270393 -0.029815972 0.021145448
-0.055001974 -0.10564773 0.106430694 0.016127467 -0.038993254 0.122605726 0.04892513 0.099135906
-0.1470449 0.15800193 0.14875284 -0.17262347 -0.065172926 -0.14750211 -0.123476684 -0.024883453
-0.031054616 -0.15359604 0.0977089 0.024261823 0.19623035 -0.099450044 -0.15682673 -0.15479729
-0.111140385 -0.12388702 -0.009467365 -0.01842724 0.053303014 0.045992915 -0.11876961 0.16946869
-0.06552656 -0.049343012 -0.13874634 0.12638679 -0.13999985 -0.2127723 -0.020783674 0.19470364
0.14880933 0.18223648 -0.15084054 -0.07671977 0.018577239 0.020842792 0.09581748 -0.008797786
0.076765865 -0.080514625 0.018366184 0.040423136 -9.489679e-06 0.17354669 0.1020488 -0.19132869
0.06240811 0.21659431 -0.12475524 -0.14277893 -0.056517165 0.24943663 0.08515614 0.21854946
-0.023245573 0.08775222 -0.25713852 -0.18619162 0.15199192 -0.12816408 -0.14380741 -0.16816261
0.1652422 0.19672152 0.22413012 0.25491124 0.14748953 0.07308984 0.2625204 0.10581562
0.15788786 0.26976657 0.32331085 0.2294431 0.29120743 0.14624645 0.20931165 0.2639211
0.32760048 0.19020249 0.30080053 0.2881165 0.33567086 0.07999481 0.035011664 0.15530428
0.1864381 0.12987491 0.1748296 0.17197748 0.09371692 0.10045688 0.10606095 0.2619788
0.11317075 0.11919251 0.22910191 0.13259372 0.25562888 0.155004 0.15860538 0.35016888
0.22807488 0.30034962 0.12743855 0.042124547 0.27001134 0.1433546 0.20601031 0.28336662
0.19216777 0.24138871 0.16727959 0.06977344 0.22204913 0.23171087 0.27086735 0.30359572
0.1404321 0.2371283 0.25546706 0.21734197 0.33822727 0.17368096 0.17438337 0.25975186

decoder.weight_ih_l0 f4 [256, 64]
00000000: 6418 32bc 6fb4 ed3d 49a9 0cbd d1aa 47bd
00000010: 0f11 0c3e 66a5 43be e9e5 10be 5c6a 8a3e
00000020: 277b 57be 6634 71be ee1f 373e c725 92be
00000030: 86e0 ddbc 2d79 18be 92f4 f1bd ea2c 86be
00000040: 5cd7 6ebe f222 fdbc 9db0 3b3e 184d dabd
00000050: 30e0 d83d ea28 513e 7a9b 9bbd 01e7 0dbc
00000060: aad9 6dbe 9d00 80be dc9d bebd 170d c53d
00000070: aed1 93be 5dde 4dbe fce5 28bd 7217 a63e
00000080: 5718 163e 297b c63d 03c7 76bd 69ec f9bc
00000090: 58b1 b13d 1a83 96bd 1bb0 3e3e aa89 abbe
000000a0: 6e2a 293e dcaa 21be a98f 5dba d964 063e
000000b0: 6dbf 72be b5d9 043e 976e 473e d5d0 89be
000000c0: 2906 05be e75c 863e 5847 28bc 697b 0cbe
000000d0: 0992 e93c c9c3 e53d a70e 9fbe 5f27 6d3d
000000e0: 9a74 94be 493e 933e 72fc 97be f8ba c7bd
000000f0: 7474 923e e6d8 68be c45b 2abe 07af 22be
00000100: ede1 76bd 759b 8a3d 71bb 893e e1ab bbbd
00000110: 3a30 b93a ddd6 05be 3a2a 4fbe dc17 203d
00000120: 30f1 89be 638d 0bbe 8ad3 6e3e 6cda 60be
00000130: a947 4a3e 3694 adbe dc66 d4bd a62a 93bc
00000140: c3ff cebd a8d0 6cbd 5727 2f3d a7ac c5bd
00000150: 74b6 a3bc 9e62 bd3d 319d 04be 1cbb 3b3e
00000160: 7e0f 87bd 8d1d 19be 4f88 27be b599 22be
00000170: db1e 3fbe f20d 40be ca39 58be 68b5 20bd
00000180: 2550 733e f4b7 733e aee8 30be 600f 06be
00000190: 3437 753d c067 5ebe a21d 8e3e f0d2 dbbe
000001a0: 6ea6 453e 8b5e 6fbe a1ff 1a3e 07eb 893d
000001b0: e981 40be a4ad 263e 5141 0a3e cf43 49be
000001c0: 5289 2d3d a65a 813e 10ca c73d ce93 41be
000001d0: 40b1 e63d c69e 393e 7f4b 8abd 097a d43c
000001e0: 14da debd 2b40 4a3e b870 9bbd b0e7 42be
000001f0: bf75 dd3d cfd9 7dbe cc6e 8ebc 9bbe 8fbe
00000200: bee0 2ebe 48bb 223e 8484 fd3d 3f20 46be
00000210: ce23 9f3d cd08 e5bd 18f4 a7bd e5c2 863e
00000220: ee12 49be 4be7 46be 6330 983e 9982 b5be
00000230: da42 9b3e 9977 7dbe c980 a9be 571e 9ebe
00000240: 44ca aabd dab9 0abe b087 32be 4476 f23d
00000250: fe65 803e 8937 513e 5db9 04be ee4a d63c
00000260: 2874 9abd 5697 a1be f985 a9be b136 f53c
00000270: b6aa f1bd 40ac cebe 1d7e 5bbe 20aa 923e
00000280: 22fb cd3a fbd7 5d3e 4e43 30bd 9362 79be
00000290: 59d0 9c3e 6705 6ebe 0071 6a3e e393 d6bd
000002a0: 85c5 4b3e a4e1 05bd e0dc 90be 0c93 45bb
000002b0: aae8 fdbd d1d1 0e3e 91e8 9d3e 7979 26be
000002c0: 9897 2c3e b744 303e 22c9 f4bd 09a2 26be
000002d0: 5e09 d43d 50d6 733e 6093 aabe ab03 7e3e
000002e0: fa44 b1be c84c 3c3e cc43 11be b3d3 e3bd
000002f0: bd82 8d3e 6596 b9bd 8ce7 9dbe 89e1 05be
00000300: f170 f4be 9d1e 573d 5780 4c3e a631 6bbe
00000310: 8d2a 093c b7d4 babd e016 95bd b047 4b3e
00000320: 0c81 b2be cdf8 a5be 4f15 2b3f 6d15 77be
00000330: 50ec c03d 3228 98bd c01e 99be 43dd 08be
00000340: 3532 0a3d f127 a8be 66cb dcbd 1610 17bd
00000350: fff0 823e 1ef9 2c3e 4d1c 7cbe 9229 513e
00000360: b668 7f3d 2fb0 84be bb30 0dbe e5dc ac3e
00000370: aee3 3ebe 873d aabd 07e9 a4be a8d9 373d
00000380: 265f a13e 791e 913e 0e94 88be 6675 35be
00000390: 4567 1c3e 968d 73be 28d2 8d3d 456d 95be
000003a0: 6025 df3d 4d65 85be 32f7 153d 4fde 543e
000003b0: b0ce ddbb d4f0 5a3e 28c9 063e efba 4fbd
000003c0: 9655 d63d aff4 203e 8fec 9b3d 9b8f 19be
000003d0: 2e47 073d 64e1 2d3e aa59 14be ce80 8b3d
000003e0: 9b2e 94be d367 ce3d e1da 64be 2444 97be
000003f0: ca5c b83e 09e7 93bd 4386 93bd 016b 4fbe
-0.010870073 0.116066806 -0.03434113 -0.048746888 0.13678382 -0.19106063 -0.14150204 0.2703427
-0.21043073 -0.23555145 0.17883274 -0.28544447 -0.0270846 -0.14889975 -0.11814226 -0.26206142
-0.2332434 -0.030900452 0.18329091 -0.10659236 0.10589635 0.20425764 -0.07598014 -0.008661033
-0.23227564 -0.25000468 -0.09307453 0.09621637 -0.2887091 -0.20104356 -0.041234955 0.32439762
0.14657722 0.0969146 -0.060248386 -0.030508237 0.08676404 -0.073492244 0.18621866 -0.33503467
0.16520092 -0.15787834 -0.0008451888 0.13124408 -0.23705836 0.12973674 0.1947578 -0.2691714
-0.12990631 0.26242754 -0.010270916 -0.13718952 0.028512018 0.11218984 -0.31065866 0.057898875
-0.2899521 0.28758457 -0.29684788 -0.09752458 0.28604472 -0.2273899 -0.16636568 -0.1588708
-0.060274053 0.06767932 0.2690082 -0.09163643 0.0014128753 -0.13070245 -0.20230952 0.039085254
-0.26941824 -0.13628154 0.23322883 -0.21958321 0.19753899 -0.33902138 -0.10371181 -0.017964672
-0.101073764 -0.057816178 0.042762127 -0.096520714 -0.019984461 0.09247325 -0.12950589 0.18333095
-0.06594752 -0.14952679 -0.16360591 -0.15878947 -0.18664114 -0.1875532 -0.21115795 -0.039235502
0.23761041 0.23800641 -0.1727626 -0.13091803 0.0598671 -0.21719265 0.27756983 -0.4293437
0.19301769 -0.23375909 0.15136577 0.06734281 -0.18799557 0.16277176 0.13501479 -0.19654773
0.042367287 0.25264472 0.09755337 -0.1890404 0.112642765 0.18126974 -0.06752681 0.025937097
-0.10881439 0.1975104 -0.07589859 -0.19033694 0.10813474 -0.24790119 -0.017386816 -0.28075108
-0.1707792 0.15891755 0.12378791 -0.19348238 0.07770501 -0.11183319 -0.08200854 0.26320568
-0.19636127 -0.19424169 0.29724416 -0.354512 0.3032444 -0.24752654 -0.33106068 -0.30882522
-0.0833936 -0.13547459 -0.17434573 0.11838964 0.25077814 0.20431341 -0.12961335 0.026158776
-0.07541686 -0.31560773 -0.33110026 0.029933305 -0.11800139 -0.4036579 -0.21434827 0.2864542
0.0015715102 0.21664421 -0.043032937 -0.2435401 0.30627707 -0.23244248 0.22894669 -0.10477426
0.19899566 -0.03268589 -0.28293514 -0.0030147461 -0.12397893 0.13947226 0.30841497 -0.16257276
0.16854703 0.17213713 -0.119524255 -0.16272749 0.10353349 0.23812222 -0.33315563 0.24806087
-0.34622937 0.18388665 -0.14186019 -0.11124363 0.27638808 -0.090618886 -0.3084072 -0.13074316
-0.47742417 0.05251943 0.19970833 -0.22968158 0.008371961 -0.091226034 -0.07279754 0.19851565
-0.3486408 -0.32416382 0.6682939 -0.24129267 0.09420073 -0.07429542 -0.29906273 -0.13365655
0.033739287 -0.32842973 -0.10780983 -0.036880575 0.2557449 0.16891906 -0.24620171 0.20426014
0.06235572 -0.25915667 -0.1378812 0.3376228 -0.1864154 -0.08312517 -0.32209036 0.044885308
0.31517905 0.2834356 -0.26675457 -0.17720565 0.15273769 -0.2378448 0.0692485 -0.2918493
0.108958006 -0.2605385 0.036612697 0.20787929 -0.006769024 0.21380931 0.13162673 -0.050715383
0.10465543 0.1571834 0.07613479 -0.14996187 0.033026867 0.16980511 -0.14487329 0.06811677
-0.28941807 0.10078397 -0.2234912 -0.29544175 0.36008292 -0.07221801 -0.07203343 -0.20255663

decoder.weight_hh_l0 f4 [256, 64]
00000000: 2c15 3bbd b088 a33c a8de e5bc 202a 993c
00000010: 48fb db3c a614 edbd 7013 313d 4a46 fc3d
00000020: fede cbbd 8469 7dbd 180b 7bbd 348e 0fbd
00000030: f624 bebd 9896 233d 7cac 7c3d 6493 eabd
00000040: 8e34 e9bd 8084 753b 20a7 e5bb 5a35 8ebd
00000050: 5279 fbbd c01e 7dbb 209c 9e3d a8a0 fc3c
00000060: f661 edbd 1430 75bd 382f df3c 18f1 e6bd
00000070: 00f5 aa3b 68c1 90bc e84e 93bd c09c 2fbb
00000080: 28ce 8f3d 74cb 9fbd cab9 febd 3cd0 a73d
00000090: 8099 bd3b b8c5 eb3d 2892 6e3d 1cd8 36bd
000000a0: a8b2 293d 80a0 f23b 460d c53d 203a af3d
000000b0: 8c08 173d 64e4 f83d 1039 cbbd 0e4c c1bd
000000c0: c088 5dbd c68d f73d 9844 63bd 405a 0cbb
000000d0: 14f1 963d 5aaf eebd 88ab f9bc 0883 81bc
000000e0: 3e1c efbd 1006 f7bc 22ed b3bd c84f afbc
000000f0: 5035 973c 14e7 883d d4f1 b7bd e865 90bc
00000100: 90c2 3fbc de56 843d d07e 073d 0099 783a
00000110: 6aec c7bd b26e e5bd b2a0 fb3d 4422 023d
00000120: 961d d93d ca04 e5bd ae26 d93d 5828 cb3c
00000130: bacf e6bd 4257 96bd 0c16 1d3d 229d 8a3d
00000140: 40eb 64bd 9020 b0bd f2e7 d93d d05a 0ebd
00000150: c879 c13c 70e0 283d c8d5 09bd a4eb f1bd
00000160: 201a ec3d e830 cf3c 1c14 e33d f805 49bd
00000170: b85c 443d 8a91 a73d ec88 28bd 906d 543d
00000180: 54ed cebd b40e ab3d c654 8cbd 3218 c1bd
00000190: b823 f5bc 106f 74bd e08b f33b 48c1 ccbc
000001a0: b8c8 333d 30c6 cdbd 0037 7cbc 0aea e2bd
000001b0: 0ef1 813d 8c84 ea3d 004c ffbc d4d8 a93d
000001c0: 3883 7c3d 1c8c a5bd 2645 82bd 0074 cbbb
000001d0: 903e cabd d0ba 86bc 685d e4bd 1e83 b6bd
000001e0: 0cbd 9bbd 4c6c e93d 0850 973d c44a 4f3d
000001f0: c890 d9bd 7c30 fdbd b0d0 3a3c a45b d4bd
00000200: 38f8 f63d e685 b13d a2ea a2bd 30a8 28bd
00000210: e243 b73d 8837 10bd 0008 fa3c cc18 8bbd
00000220: b8fb 1dbd 9a78 ce3d 2655 d3bd 6403 313d
00000230: 8866 b63c 9e5f 8c3d aae4 923d 503b 6b3c
00000240: 80ce 23bb da3c a23d 0824 8bbc 0083 38bb
00000250: bc5e f03d ea8b e7bd b037 24bc 74c9 20bd
00000260: c874 c4bc 2495 25bd 264b cbbd f0f9 a63d
00000270: d4e7 e1bd fa2c ad3d b0a5 613c 166c b93d
00000280: a208 e93d 5499 863d 167f ed3d b059 d3bd
00000290: b014 c1bc 0003 4c3a e096 ce3c d04b d13c
000002a0: 66a7 a6bd 1496 cbbd d49a a6bd f0e2 3a3c
000002b0: 622f ee3d 6ce8 023d 5463 113d bca6 fb3d
000002c0: 0cb6 6e3d 28bf c8bd 40fa 0c3d 004f 153a
000002d0: 2ac4 f1bd 30e5 113c e2eb b53d 18df cdbc
000002e0: 6894 c8bc 426e edbd a009 e2bd 104c 263c
000002f0: 44e0 debd 5240 cb3d 0084 663d 1c0e a93d
00000300: da17 a7bd 9894 ddbd 0065 8dbc f61e dc3d
00000310: 5830 c03c 68ef cf3d 4e5c d53d 00e5 4dbb
00000320: 34f3 2fbd 8caa 7f3d 8289 c93d 3e91 e43d
00000330: c0db 3d3c 0058 05b9 24a5 2b3d 229e c83d
00000340: bc6f d53d e865 543d 98f2 89bd f46f 25bd
00000350: 2095 3a3c a8e5 f8bc b858 debd d099 133d
00000360: c0e6 9cbc 3ebf e3bd c04b a53b c054 9bbb
00000370: 8a43 cabd 90bf edbc 5832 e3bc f0b8 c6bd
00000380: f2d8 cb3d 6e51 ecbd 0007 03ba 7a75 b63d
00000390: f4fa 203d a208 e33d b89f 903d 849a 37bd
000003a0: 5cb8 fa3d d827 2d3d 7023 64bc 4a22 b8bd
000003b0: f8cc 723d c00b e5bc 7008 1dbd 6074 ccbb
000003c0: 70b5 093c 88d0 60bd 8e55 b23d 8a14 b23d
000003d0: f046 cebc 0451 46bd 18fe dd3c 8e4b d8bd
000003e0: 58b5 fb3d 9007 58bc 9cfc ecbd 0430 cabd
000003f0: 6cc5 c03d 02bc fa3d 0cfa a73d f050 83bd
-0.045674488 0.019962639 -0.028060272 0.018696845 0.026853219 -0.11576204 0.043231428 0.12318094
-0.09954642 -0.061868206 -0.061289877 -0.035047725 -0.092843935 0.03993854 0.06168793 -0.11453894
-0.11386977 0.003746301 -0.0070084482 -0.0694377 -0.122789994 -0.0038623065 0.07744622 0.030838326
-0.1159095 -0.059860304 0.027244195 -0.11276454 0.0052171946 -0.017670348 -0.071927845 -0.002679631
0.07021743 -0.078024775 -0.1243778 0.081940144 0.005786121 0.11512321 0.058244854 -0.04463969
0.041430146 0.007404387 0.09621672 0.08556008 0.036873385 0.12152937 -0.09922993 -0.094383344
-0.054085493 0.12087588 -0.055485338 -0.0021416098 0.07370201 -0.116545394 -0.0304773 -0.01580955
-0.11675309 -0.030154258 -0.08785464 -0.021400347 0.018458039 0.066847 -0.08981672 -0.017626718
-0.011704102 0.06461881 0.033079922 0.0009483248 -0.09761889 -0.11202754 0.122865096 0.03177096
0.10601346 -0.11182554 0.10603081 0.02479951 -0.112700894 -0.07340862 0.038351104 0.06768252
-0.055888414 -0.08599961 0.10639943 -0.034754574 0.02361764 0.041229665 -0.033651143 -0.11812523
0.115284204 0.025291875 0.1108782 -0.049077958 0.047939986 0.08182056 -0.041146204 0.0518623
-0.101038605 0.08352414 -0.06852107 -0.09428443 -0.029924259 -0.05967623 0.007432446 -0.024994507
0.043892592 -0.10047567 -0.015393972 -0.11079796 0.06344806 0.114510626 -0.03116417 0.0829331
0.061648577 -0.08083364 -0.06360845 -0.0062088966 -0.09875214 -0.016446501 -0.11150628 -0.08911727
-0.07604417 0.11397609 0.073883116 0.05060841 -0.10623318 -0.12362763 0.011402294 -0.103690416
0.12059063 0.08668117 -0.07954909 -0.04117602 0.089484945 -0.03520921 0.030521393 -0.06791839
-0.038570136 0.10081597 -0.10318975 0.043216124 0.022265688 0.06854175 0.071725205 0.014357403
-0.002499491 0.07921763 -0.016984954 -0.0028154254 0.11736819 -0.11305983 -0.010023043 -0.03925462
-0.023981467 -0.040425435 -0.09926443 0.081531405 -0.11030546 0.08455844 0.013772413 0.09053819
0.113786 0.06572214 0.11596505 -0.10319841 -0.023569435 0.00077824295 0.025218427 0.025548846
-0.081373975 -0.099407345 -0.08135 0.011406645 0.11630131 0.031959936 0.035495117 0.122876614
0.058279082 -0.09802085 0.034418344 0.0005695671 -0.118049935 0.00890474 0.08882882 -0.025130793
-0.024484828 -0.11593296 -0.11036992 0.010149971 -0.10882619 0.099243775 0.05627823 0.08254644
-0.08158846 -0.10819358 -0.017260075 0.10748093 0.023460552 0.10153085 0.10417996 -0.0031417012
-0.042956546 0.062418506 0.09840681 0.11160515 0.011588037 -0.00012716651 0.041905537 0.097957864
0.10421702 0.051854998 -0.06735724 -0.04038997 0.011388093 -0.030382946 -0.108567655 0.03603536
-0.019152999 -0.11120461 0.0050444305 -0.0047403276 -0.09876163 -0.029022008 -0.027733967 -0.09703243
0.099534884 -0.11538969 -0.00049982965 0.089091256 0.039301828 0.11085631 0.07061714 -0.044825092
0.12242195 0.042274326 -0.013924465 -0.08990915 0.059277505 -0.027959704 -0.038338125 -0.006239459
0.0084050745 -0.05488637 0.087077245 0.08695324 -0.02518031 -0.048417106 0.0270987 -0.10561286
0.12290448 -0.013185397 -0.11571619 -0.098724395 0.09412655 0.12242891 0.082019895 -0.06411922

decoder.bias_ih_l0 f4 [256]
00000000: 206d f53c dff5 603e 1d36 963e d77e 6d3e
00000010: d944 cabc 7751 923e ef4c b33e 6a72 793e
00000020: ff0c 8d3e fc0e 623e cce7 953e 23db 9f3e
00000030: a596 733e 62dc 823e df3f 533e 147e 3c3e
00000040: e9f6 51ba fd96 573e 8774 193e 0cd6 d33d
00000050: cf39 123d e7a9 f03d 3297 8e3e 7a41 b93e
00000060: 055b e13e 1c92 0b3e a1b5 573e 87e0 b33d
00000070: a3c3 f03d 0c3f 053e 1c69 c73d d196 a73d
00000080: 7cba 553e e38b ab3e 59dc 763e 65e8 c93d
00000090: aa8e 16bc 326e 1e3e de03 733e c760 733e
000000a0: 27c0 62bd cab2 5a3e b7bb 833e c781 193e
000000b0: 565d 0f3e 2234 963e dd4c 3b3e 3eff 333e
000000c0: 456f 803e 1640 813e 1c40 c13d 1db0 933d
000000d0: db49 883e 7d21 0a3e e00c 713e cdb1 b63e
000000e0: f946 a13e bd24 a63e dab9 123e 0517 333e
000000f0: 9667 6f3e a0a9 873e ea69 013e e5f9 0c3e
00000100: 1a7f aabd 38a2 a4bd f649 f73d e8d4 4b3d
00000110: 409f f1bb 8c66 11bd 60e0 2abc aead fb3d
00000120: 4a78 eebd 90a4 18bc f849 a53c d2ea f33d
00000130: d030 fbbc 68d1 86bc 44ed 63bd a0c9 873d
00000140: 4cc2 063d fc1e 563d a4c2 00bd 7ac3 eabd
00000150: 468a cf3d 4c92 883d b8eb dd3d e6d4 94bd
00000160: 721b ba3d 0496 3a3d 522c c23d 00e1 223a
00000170: a074 fb3c 4c3e fbbd 1030 cf3c 341d 1bbd
00000180: f0d3 a73c c00e 9d3d 480a 8c3d a481 28bd
00000190: 581a c0bc 2a0d f53d e8e5 d1bc 5ad6 c6bd
000001a0: 94c3 37bd 225b d13d cabc be3d b86d c93d
000001b0: c070 92bb 7a8f a13d 208c 0f3c 94f3 053d
000001c0: 3836 08bd 44aa bbbd 4c20 523d 5e36 e53d
000001d0: 4872 e0bc 5a8b acbd a049 e83d 9c92 e9bd
000001e0: 0019 c23a 8eb3 9cbd c022 2cbd 08a9 153d
000001f0: c6f6 c8bd a036 72bc 44c2 013d c48c edbd
00000200: 614c 903d f133 1f3c 045e 3e3c 18c6 e93d
00000210: feaa 36be a562 b23d be3c dabd 81d7 33bc
00000220: 33e4 86bd b784 1bbc 4793 713c 1580 13be
00000230: 30e1 4f3e 0a66 df3d eae9 1bbd 9185 86bd
00000240: 21ef 7cbd b542 7b3d 86fd 39bd f14d 7ebd
00000250: adae c5bd fcb1 da3d f262 de3b 510d 193e
00000260: 5d99 bd3b 4a56 0b3d e456 babd ca56 123e
00000270: f435 0b3c 0205 d7bd d3a2 17be 4b1c 1a3e
00000280: 749a 923d 36d5 8f3d 4a1e 4cbd 52b5 b23d
00000290: b0df cc3b cb71 fb3d a3b7 ad3d cae2 233d
000002a0: deac 373d bde0 e53d e53b 06bc b620 94bd
000002b0: 9f8f 03bd b54f 5abc b893 153e 5f3e cabc
000002c0: a954 933b f234 febd 6f47 1bbe 8077 babd
000002d0: 2ddf 9f3d b25e 0fbd aa2d 443d 6d4b 5fbd
000002e0: 41f1 763c 6b89 04be 7c2e 263c 2f3c 243e
000002f0: 6fcf a6bc 89f0 323e a0d0 51bc b52f 05be
00000300: 616a 803e b497 913e 66fd 883e 3000 bf3e
00000310: 0af9 8b3d ddcc a93e 2074 883e 9f19 513e
00000320: 0806 943e e151 9f3e a5bf 883e 7151 883e
00000330: b446 993e 7666 883e 594e 003e 0d14 5b3e
00000340: 6f08 ed3d e9fd 9f3e 1693 123d 157b af3d
00000350: 6962 403e 110d fe3d b19c b93e ec0c d43e
00000360: 40fa df3e a64b 903e bc6a 8d3d d200 c53e
00000370: f5ef a83e 5003 05bd cc49 243e 404b 673e
00000380: db44 533e cda7 3f3e 8888 483e d887 163e
00000390: 8148 783c 5756 ba3e 0676 9f3d 29a4 7c3e
000003a0: d8df b23d acba 2c3e 622f ba3e 4199 7a3e
000003b0: ca27 6b3e e3dd bf3e d627 593e 1f4d 703c
000003c0: 6064 b53e 66a0 8c3e 505d 943e 1868 613e
000003d0: 0bdf ba3e 1dec 933e 11b1 553e a401 843e
000003e0: eea7 ab3e a335 ad3e 12b8 d63d 8bbf b63e
000003f0: b7f5 0a3e b3cd 4e3e b0c8 883d dbae aa3e
0.029959261 0.21968792 0.2933816 0.23192917 -0.024691032 0.28577778 0.35019633 0.24360052
0.27548978 0.22076029 0.2927841 0.31221876 0.23787935 0.25558764 0.20629834 0.1840747
-0.000800951 0.21053691 0.14985858 0.103435606 0.03569966 0.11751156 0.27849728 0.36182767
0.44014755 0.13629955 0.2106538 0.087830596 0.11756065 0.13012332 0.09736845 0.08183063
0.2087192 0.33505163 0.24107493 0.09858779 -0.009189287 0.15471724 0.23731944 0.23767386
-0.055359032 0.21357265 0.25729153 0.14990912 0.14000449 0.2933665 0.1829104 0.17577836
0.25084892 0.25244206 0.09436056 0.07211325 0.26618847 0.13489337 0.23540068 0.35682526
0.3149946 0.32449904 0.14328709 0.1748925 0.23379359 0.264966 0.1263806 0.13767202
-0.08325024 -0.08038753 0.12074654 0.04976359 -0.0073737204 -0.035498187 -0.010429472 0.12288986
-0.11644037 -0.0093165785 0.020176873 0.11910023 -0.030662924 -0.016457275 -0.055646196 0.06630254
0.03290014 0.052275643 -0.031435624 -0.114630654 0.101337954 0.06668529 0.108359754 -0.0726717
0.09087266 0.045553222 0.0948111 0.0006213337 0.03069526 -0.122677416 0.025291473 -0.037869647
0.020486802 0.07668829 0.068378985 -0.04113926 -0.023450062 0.119654015 -0.025622323 -0.09708853
-0.044864252 0.1022246 0.093133524 0.0983538 -0.0044690073 0.07888694 0.008761436 0.032702997
-0.033254832 -0.09163335 0.051300332 0.1119201 -0.027398244 -0.08425017 0.11342168 -0.11404917
0.0014808476 -0.07651435 -0.042025328 0.036538154 -0.09812693 -0.014783531 0.031679407 -0.115991145
0.07045818 0.009716974 0.011619095 0.114147365 -0.17838666 0.08710221 -0.10656117 -0.010976673
-0.06586494 -0.009492091 0.014744586 -0.14404328 0.20300746 0.10908134 -0.038064875 -0.065684445
-0.06175149 0.061342914 -0.045407794 -0.06208605 -0.096524574 0.10678479 0.0067866975 0.14946486
0.0057861046 0.03401784 -0.09098604 0.1429092 0.00849675 -0.10499002 -0.14808206 0.15049855
0.07158366 0.07023089 -0.049833573 0.0872599 0.0062522516 0.12277564 0.084822915 0.040011205
0.044842593 0.11224506 -0.008192991 -0.072328016 -0.03211939 -0.013324668 0.14607131 -0.024687944
0.0044961763 -0.12412442 -0.15163969 -0.09104824 0.07806239 -0.035002418 0.04789511 -0.05451529
0.015072168 -0.12943046 0.010142919 0.16038583 -0.020362584 0.1747457 -0.012806088 -0.1300648
0.2508116 0.28436053 0.26755828 0.3730483 0.0683461 0.3316411 0.26651096 0.2041993
0.2891085 0.31117156 0.26708713 0.26624635 0.29936755 0.26640671 0.12529887 0.21394368
0.11573874 0.31248406 0.035784803 0.08568398 0.1878754 0.12404836 0.3625236 0.4141611
0.43745613 0.28182715 0.069051236 0.38477188 0.32995573 -0.032473862 0.16043776 0.225873
0.20631735 0.18716355 0.19583333 0.14700258 0.015154005 0.36393997 0.07786183 0.24671997
0.08734101 0.16868085 0.36364275 0.24472524 0.22964397 0.37473974 0.21206602 0.014666825
0.35428143 0.27466124 0.28977442 0.22012365 0.36498293 0.28891078 0.20868327 0.25782502
0.33526558 0.33829984 0.104843274 0.3569301 0.13570295 0.20195656 0.06678903 0.3333653

decoder.bias_hh_l0 f4 [256]
00000000: 767a 713d 31c8 fb3d 0ab4 d53d c709 603e
00000010: f929 813b 9dbd 8b3e 044e 603e dad4 313e
00000020: 2308 843e 6e2b 903e 7ad3 c03e 69fe 4e3e
00000030: f74c 483e ef08 313e f5c5 533e e835 243e
00000040: 31ad ffbc a6d0 883d 1541 db3d 1a0f 523d
00000050: 8010 4b3e 1bb9 e23d d840 9d3e 6c4d ac3e
00000060: 5369 fa3e 57c6 7c3e 198f 093e 90ea 703e
00000070: 0df8 423e 5974 b03c 6acd 703d 963b 5f3e
00000080: 32da 073e ddb1 a53e 6758 8c3e 3f90 553e
00000090: c508 993d b0dc 053e 3123 bd3d 8be1 ae3c
000000a0: 074c 7bbd 9546 003e 17f5 a03d 1fa8 073e
000000b0: d510 b03e d266 b83e 3a2d 323e cb3a c03d
000000c0: 994b 2a3e 72c4 de3d e1e0 5e3e c2e8 e43d
000000d0: db98 843e 1331 0f3e cc6b 763e 073b 093e
000000e0: c248 3e3e f3ae 8d3e 2acd 1a3e 7f34 4c3e
000000f0: 94a9 1e3e 42f4 623e f430 a13d eafe be3e
00000100: fa1f 9bbd 80b3 dfbc 5a56 cb3d 9e64 dbbd
00000110: 1854 693d 90fa ef3d 5a5e 883d 402a 53bc
00000120: e06f c93b 0e6d 84bd de11 fabd 30fe 793d
00000130: c636 f23d 50f7 2cbc bc77 a03d 603a f93b
00000140: f48a a1bd a2eb ff3d 00eb 513d b0a6 62bc
00000150: c857 c9bc 48c5 813c 7c21 d7bd 00ac b33c
00000160: 9031 433c 4ce5 493d 346e 193d aeb2 ce3d
00000170: 44da b03d d81d d1bd 0ef2 fdbd da11 f13d
00000180: e07f 473d 5caf 83bd 22a6 943d f894 a43d
00000190: e486 693d 347d 633d 92f2 a73d 0cde 8f3d
000001a0: 383e 9b3d 20fe 8dbd aa56 a23d 8825 f33d
000001b0: 4a7f 87bd a0e0 ba3c ac6b 163d 1600 c2bd
000001c0: 7488 59bd b08b d53c 5812 cf3c 4a2e da3d
000001d0: b0a1 643d 64bd a3bd a070 b9bc 6ccc 6b3d
000001e0: 848d b5bd c87b 5f3d 7c7b ba3d 7ec4 e93d
000001f0: 76f6 8c3d 105f fcbd f4f2 c63d 40e0 bbbb
00000200: 2d21 883d 4001 01bd 80e2 2e3e 54d3 59bd
00000210: 9ae8 32be ff9e 8cbd 5d79 1ebc 206f fabd
00000220: fc2d 42bd 98db 30bd aee2 8ebd b407 3e3d
00000230: e622 183e 14a7 bc3d 2235 a13c dff8 ecbd
00000240: 432d 383c bd26 063d 789f 9bbd af2f 4cbd
00000250: 8fc8 ba3d 527e babc fd85 11be 16f3 0d3d
00000260: 88b0 ccbd cb3a 82bd e06b d13d e8a3 133e
00000270: 8db0 b63d 88b1 e8bd 816d 313c 4cc4 973d
00000280: 21e1 233d 233f 06bd ed94 993c 9247 5dbc
00000290: d006 5e3d 8f03 d6bc 218a f0bd 2826 10bd
000002a0: 7153 71bd 372e a03d 75a0 a03d 7f51 7f3d
000002b0: 6bc7 d23d 4732 623d e35c 703d ebcf eebc
000002c0: 04a4 1c3c 84cc 893d 9d14 4fbd b249 1f3d
000002d0: b901 b63d 28dd 273b 3b0e d4bd f9d2 97bd
000002e0: cdf8 35bd 2a97 2fbd 4c0e 13be f31d de3d
000002f0: f745 d6bd 960b f73d f0e3 5d3d 723e 82bb
00000300: fb3e 133e bfbb 423e 6914 223e 4a37 b53e
00000310: 499d 13bd 898a 2c3e 8b95 ca3e b87a 463e
00000320: 9382 c13e 576b d93e e6e8 803e 638a c03e
00000330: da2c 9e3e d168 3c3e 295d 093e 6b07 463e
00000340: c433 1e3e a169 b13e b600 a93d 5325 513c
00000350: 135a 1a3e 833b 483e 03ae 3d3e 9ef2 b93e
00000360: d48a d93e 555e 493e 88d7 2f3e caf8 c33e
00000370: 6143 8a3e d7c3 0c3e 80a6 da3d beb5 4f3e
00000380: 7a20 e43d 4885 0c3e 9251 a53e 7118 0e3e
00000390: 756f 523d c53c b93e fe78 483e 3b07 503e
000003a0: 6b41 91bc cc68 3c3e 95b3 4f3e f544 d13e
000003b0: d7ea a63e cc03 583e c448 9f3e b65e 333e
000003c0: d8b3 503e 8dee ad3e 52d7 a53e b03f 5c3e
000003d0: 9c70 d73e 069f 393e 5bac 393e de4f ed3e
000003e0: 8010 963e 5def 583e 6050 9c3d c9ea 083e
000003f0: e83c a03e 3f00 433e f024 ee3d ff75 163e
0.05895468 0.12294043 0.1043473 0.2187873 0.003941771 0.272931 0.2190476 0.17366353
0.25787458 0.28158134 0.37661344 0.20214237 0.1956061 0.17288564 0.20680983 0.16036189
-0.031210514 0.066804215 0.10705773 0.051283933 0.19830513 0.11070462 0.30713534 0.33652818
0.4890848 0.24685036 0.13433494 0.23526978 0.19039936 0.021539854 0.058789648 0.21800074
0.13266829 0.3236226 0.27411196 0.20855807 0.07472376 0.13072467 0.09235228 0.021347782
-0.061351802 0.12526925 0.07859247 0.13247727 0.34387842 0.36015946 0.17400065 0.09386214
0.166304 0.10877313 0.21765472 0.111772075 0.2589787 0.13983564 0.24064559 0.13401423
0.18582442 0.27672538 0.15117326 0.199419 0.15494376 0.2216349 0.07870665 0.3730386
-0.075744584 -0.027307272 0.0992858 -0.107125506 0.056964964 0.11717713 0.06658621 -0.012888491
0.0061473697 -0.06466113 -0.12210439 0.061033428 0.118268535 -0.010557011 0.078353375 0.007605836
-0.07887831 0.12496115 0.051249504 -0.013833687 -0.02457799 0.015841141 -0.105044335 0.021932602
0.011913672 0.04929094 0.037458614 0.10092674 0.08635381 -0.1021077 -0.12399684 0.11770983
0.048705935 -0.064299315 0.0725825 0.08036226 0.057013407 0.055539325 0.082005635 0.07024774
0.07580227 -0.06933236 0.07926686 0.11872393 -0.06616075 0.022812188 0.036723778 -0.09472673
-0.053108647 0.026067585 0.025277302 0.1065336 0.05581826 -0.07995108 -0.022636712 0.057568
-0.088648826 0.054561406 0.09105584 0.11414431 0.06882946 -0.12322819 0.097143084 -0.00573352
0.06646953 -0.031495333 0.1707859 -0.053180054 -0.17471543 -0.068662636 -0.00967249 -0.12228227
-0.047407135 -0.04317817 -0.069768295 0.046394065 0.14857063 0.09211555 0.019678656 -0.11570906
0.01124126 0.032751787 -0.075987756 -0.049850162 0.09120285 -0.022765312 -0.14211269 0.034655653
-0.09994608 -0.0635887 0.10225654 0.14417994 0.08920393 -0.113619864 0.01082933 0.074104875
0.04000962 -0.032775056 0.018747771 -0.013505833 0.054205716 -0.026124744 -0.11745096 -0.03519264
-0.058917467 0.07821315 0.07843105 0.06233358 0.10291942 0.05522373 0.058682334 -0.029151877
0.009560589 0.067284614 -0.050556768 0.03888864 0.08887047 0.0025613997 -0.10354277 -0.07413287
-0.044426728 -0.04286877 -0.14360923 0.10845556 -0.104625635 0.12062757 0.054172456 -0.003974729
0.14379494 0.19016932 0.15828098 0.35393745 -0.03603867 0.16849722 0.39567217 0.19382751
0.37794933 0.42464706 0.25177687 0.3760558 0.30893594 0.1839936 0.13414444 0.19338767
0.15449435 0.346509 0.08252089 0.012765246 0.15073423 0.19553952 0.18523411 0.36317915
0.4248873 0.19664891 0.17172062 0.38275748 0.2700453 0.13746582 0.106762886 0.20284173
0.11139007 0.13722718 0.32288796 0.13876511 0.051375825 0.36179176 0.19577405 0.20315258
-0.017731389 0.18399352 0.20283349 0.40872923 0.32601044 0.21095198 0.31110203 0.17516598
0.20381105 0.33971062 0.3239084 0.2150867 0.42078102 0.18127069 0.18132155 0.46349996
0.29309464 0.2118506 0.07632518 0.13370813 0.31296468 0.19043063 0.11628139 0.1469345
