src/backend/model.pth (torch, 224476 bytes, 10 tensors)

encoder.weight_ih_l0 f4 [256, 16]
000000 24 c2 02 3e af 59 91 bd 78 65 82 3e cc f8 5a 3e
       0.12769371 -0.07097184 0.2546804 0.21383971
000010 f8 2e b5 3e 6c 23 20 3e 6d 53 bc 3e 2e f9 4d 3d
       0.35387397 0.15638512 0.367824 0.050286464
000020 f4 ce 65 3e 7d 37 71 3e 41 66 b2 bc d8 78 b2 bd
       0.22442228 0.23556323 -0.021777274 -0.08714455
000030 0d ad 81 3b ea 1d c2 3c 99 3d 7e 3b 48 cb 65 be
       0.003957397 0.023695905 0.003879404 -0.22440827
000040 4b 88 15 3e 5c d3 89 3e 1e 58 6e 3e 0d 37 8e 3e
       0.14602773 0.26919067 0.23275802 0.27776375
000050 95 ce 7f 3e 4a b2 bf 3e 89 34 36 3e bd 3d 03 3e
       0.24981149 0.3744071 0.17793478 0.1281652
000060 a8 af 37 3e c3 8d 80 3e 95 b3 6a 3e 9d c0 47 3e
       0.17938101 0.25108156 0.22920068 0.1950707
000070 ef 11 0e 3d 07 61 20 3d d9 c7 95 bd d2 b8 c3 3c
       0.03468507 0.039155032 -0.073135085 0.02389184
000080 fe 7f 92 bd 21 f4 cb bd dd d3 8d bd 16 b3 a6 3e
       -0.07153319 -0.09958673 -0.06925175 0.32558507
000090 f6 dc b5 3e 66 d8 d7 3d 5a f7 76 3e c9 02 ac 3c
       0.35520142 0.105393216 0.24117795 0.020997422
0000a0 a4 81 f7 3d e8 d4 28 bb 3b b7 95 bd ed 22 59 3d
       0.12085274 -0.0025761668 -0.07310339 0.053011823
0000b0 43 51 38 3e 99 03 98 3c 4a 18 e9 3d 79 fa 98 3e
       0.17999749 0.018556403 0.11381586 0.29878595
0000c0 9a e6 3e 3e a0 df 74 be 46 b6 d2 3d 05 27 84 3e
       0.18642655 -0.23913431 0.10288672 0.2581102
0000d0 40 e7 bb 3d 55 fa b5 3e d9 ec 1a 3e d3 42 57 bd
       0.09174967 0.3554255 0.15129413 -0.052553963
0000e0 40 94 98 3e 95 31 93 3e 95 67 21 bd 6a 71 52 bc
       0.29800606 0.28748766 -0.039405424 -0.012844423
0000f0 21 ef 8c bd 0d 41 d7 bd 8f dc 16 3e c9 b8 43 3c
       -0.06881548 -0.10510454 0.14732574 0.011945912
000100 a3 cc 06 3b 78 46 5f be 42 62 31 3d 3c 5e 89 3e
       0.002056875 -0.21804225 0.043306597 0.26829708
000110 e5 23 ad bd 31 a1 cc 3e 78 03 88 3e 4e fc 01 3e
       -0.08454112 0.3996673 0.26565146 0.12693903
000120 3e 94 e8 3d 29 a1 4f 3d b9 33 82 bd 1a 63 ed bd
       0.113564 0.050690804 -0.063575216 -0.11591168
000130 c9 3f b7 bd 02 60 e3 bc bc 44 09 3e a1 c5 e9 3c
       -0.08947713 -0.027755741 0.13405126 0.02853662
000140 4b 8e da 3d 0c cd 3f 3e 81 97 b0 3e 12 7f 15 3d
       0.106716715 0.18730563 0.34490588 0.036498137
000150 09 cd a4 3e cf 0d 02 3e 8f fc ee 3d b4 6e 50 3d
       0.3218768 0.1270058 0.116692655 0.050886825
000160 2f 5d ac 3d 7e 0b 10 3d f8 a6 01 3e fc a0 fc bc
       0.08416211 0.03516721 0.1266135 -0.030838482
000170 63 0a 4c bd cb 86 32 bd f5 5d 56 3e 23 f0 80 3c
       -0.049814593 -0.04358558 0.2093428 0.015739506
000180 b2 74 2e 3e a4 87 1d bd e4 10 28 3e c4 52 80 3e
       0.17036703 -0.038459435 0.16412693 0.25063145
000190 98 4e 61 3e fd ee 28 3e 6e d8 61 3e 5f 7f b2 bd
       0.22002637 0.16497417 0.22055218 -0.087157
0001a0 f6 e8 57 3e e6 13 eb 3d 1f 74 87 be 23 1e 55 bd
       0.21084961 0.11478405 -0.2645578 -0.052030694
0001b0 16 b0 34 be 9c 3c 80 be 69 5d 3c bd 68 3b 2d 3e
       -0.17645296 -0.2504624 -0.04598752 0.16917193
0001c0 25 fe 04 bd ba 27 75 be 40 1d cd 3c d5 66 a3 3d
       -0.032468934 -0.23940936 0.025038362 0.07978598
0001d0 e9 b2 f8 bc ba b3 9d 3e f9 06 85 3d 3e fe 3a 3d
       -0.030358749 0.30801183 0.064954706 0.04565262
0001e0 35 c1 6d 3e 22 77 69 3e d3 fd 28 3e bd fb d3 bd
       0.23218234 0.22799352 0.16503076 -0.1035075
0001f0 d3 4d 28 3e 40 16 11 bd fa be 15 3e f7 fd 5f 3d
       0.16435938 -0.03542161 0.14623633 0.05468556
000200 86 b5 8a bd f0 3d f3 bd 72 7c 43 3b a4 d0 f9 3d
       -0.06772904 -0.11877048 0.0029828814 0.12197998
000210 6a 4b a3 3e 1a b1 53 3e 79 e8 f2 3d 20 df b5 bc
       0.31893474 0.20673028 0.11860747 -0.02220112
000220 22 3d 27 3d 98 34 91 3e 1c ce 8e 3e 08 04 c7 bd
       0.040829785 0.28360438 0.27891624 -0.09717566
000230 00 ae f1 3c 7c 19 61 be 78 82 90 3d 11 55 f4 3d
       0.029501915 -0.21982378 0.07056135 0.11930288
000240 d7 2a 83 3b 07 70 84 bd 3d 2e 46 bc 07 ea d3 3e
       0.0040029096 -0.0646668 -0.012095985 0.41389486
000250 bd 95 88 3e d4 aa a3 3e 33 c1 aa 3e d7 c4 21 3c
       0.2667674 0.3196627 0.33350524 0.00987359
000260 56 40 05 3e 31 33 83 bd 3d 14 ca 3c f2 80 b6 bc
       0.13012823 -0.06406248 0.024667853 -0.022278283
000270 fa 74 42 3d 17 6c 59 3e b1 7e 0d bc e7 89 26 3e
       0.04747484 0.21232639 -0.008636163 0.16263543
000280 c0 fc c0 3d 70 f6 0c bd 8a 60 3d 3d fc db 22 bd
       0.09423208 -0.03441471 0.046234645 -0.039760575
000290 7a e9 cc 3e 96 da 90 3e 33 36 5c 3e e3 31 65 3e
       0.40021878 0.28291768 0.2150505 0.22382312
0002a0 72 d6 06 3e 7e 6b 06 3e 88 32 66 bc 16 e3 a7 bc
       0.13167742 0.13126943 -0.0140501335 -0.020494025
0002b0 81 e0 0b 3d fc 25 df 3d da 90 a1 3d b6 e8 31 3b
       0.03414965 0.10895917 0.07888956 0.0027146763
0002c0 df f7 67 3c e9 60 bd 3e 80 de 0d 3e b4 57 82 3e
       0.014158218 0.36988 0.13854408 0.25457537
0002d0 27 2e bd 3d 5e f7 87 3e eb 98 e3 3d 86 b9 20 3e
       0.092373185 0.26555914 0.11113151 0.15695772
0002e0 d7 78 8a 3d b9 90 8e 3d f2 85 11 3e ea 4c 0f be
       0.067613296 0.069611974 0.14211252 -0.13994184
0002f0 c0 0d 4a bd 16 81 54 3c 28 03 f9 bd e6 46 6e bd
       -0.04932952 0.01297023 -0.12158805 -0.058173083
000300 83 49 4a 3a 2a 4f 13 bc a4 a4 4f 3d 54 ef 1d 3e
       0.00077166426 -0.008991042 0.050694123 0.15423328
000310 1f a1 85 3e 08 55 85 3e 37 b5 46 be b9 ea 7a 3d
       0.26099488 0.26041436 -0.19405065 0.061259005
000320 a0 62 4f 3e 91 b2 94 bd 3b 2d 2e 3e e8 fe 5d 3d
       0.20252466 -0.07260621 0.17009442 0.054198176
000330 72 31 1f 3b 19 06 95 3c 6a c1 be 3d fc 2b 90 3c
       0.0024290946 0.018191384 0.093142346 0.017599098
000340 8a d5 12 3e ce 42 9f 3e ce 19 45 3e 3c 76 8e 3e
       0.14339271 0.31105655 0.19248125 0.2782458
000350 0b 6f a3 bd 54 57 81 3e 64 f4 48 bd 15 28 08 3e
       -0.07980164 0.2526194 -0.049061194 0.1329654
000360 56 c1 c5 3d ea 78 49 3e 20 d4 dd bd 5e 92 94 bd
       0.096560165 0.19675031 -0.10831475 -0.0725448
000370 ef b1 29 be 92 69 fa ba 83 71 2a 3e 81 ce 85 3d
       -0.16571783 -0.0019104949 0.16644864 0.06533528
000380 e0 e8 2e 3e 11 8c cf be 96 bf b6 bc 37 58 09 3e
       0.17081022 -0.4053655 -0.022308152 0.13412558
000390 59 95 a7 3e dd b2 74 3e c3 8c 21 be fc c5 52 3d
       0.3273113 0.23896356 -0.15776353 0.051458344
0003a0 7f e7 26 3d c7 41 0f 3e ce 14 34 3d b0 19 83 3d
       0.040748116 0.13989936 0.043965153 0.06401384
0003b0 4f a0 9e bd de eb ba bc f3 c7 4e bd 40 ec 9b 3c
       -0.0774542 -0.022817548 -0.050483655 0.019033551
0003c0 e0 bc 8c 3c c4 24 c1 3e 1f 53 de 3d a7 d8 43 3e
       0.017179906 0.37723362 0.10855698 0.19125615
0003d0 23 ea 14 bd ae e0 60 3e 5e 07 44 bd d4 cd 10 3c
       -0.036356103 0.21960708 -0.04785859 0.008838136
0003e0 4f 92 c6 3d 2b 7f 77 3d 40 f3 51 be aa 21 2b 3e
       0.09695875 0.06042401 -0.20502949 0.1671206
0003f0 4d df 7e 3c c9 3f b7 be b5 ff bb bb 33 aa 04 be
       0.015556169 -0.35790852 -0.0057372698 -0.12955551

encoder.weight_hh_l0 f4 [256, 64]
000000 90 ec 6b bc 18 6a 13 bd 56 2a bb bd d0 45 d3 bd
       -0.014399663 -0.03598985 -0.09138934 -0.1031605
000010 00 9b 11 bc 76 92 9b bd 3a e1 ed bd 7e cd fe 3d
       -0.008887053 -0.075962946 -0.11615224 0.12441538
000020 84 ea 8c bd ba 70 a8 3d b4 7d 8b 3d 68 a3 eb 3d
       -0.06880668 0.08224626 0.06811085 0.11505777
000030 30 7c 90 3c e0 10 e8 3b b0 5e 56 bd ee c8 e6 3d
       0.017637342 0.00708209 -0.052336395 0.11268793
000040 7a ac a4 3d 10 ee 8d 3d 7a f4 ea bd 00 0c af bd
       0.0804071 0.069301724 -0.114724115 -0.08547211
000050 ca 0d 8b bd a0 c7 23 bc 80 50 42 bb 60 60 79 bd
       -0.067897394 -0.009996325 -0.0029650033 -0.060882926
000060 00 93 09 3d f0 cd d1 3d 34 2b 39 3d fa 02 88 bd
       0.033587456 0.102443576 0.045207217 -0.06641193
000070 3e f5 ba bd 34 7d 2d 3d 3e 4f e0 bd 68 4d de bd
       -0.091288075 0.04235573 -0.10952614 -0.10854608
000080 e8 b6 e8 bd b2 68 ec bd 68 81 af 3c 00 95 dc 3c
       -0.113630116 -0.115434065 0.02142401 0.026926517
000090 16 9f b3 3d 40 9e 58 bb 0c 3b 4c 3d c4 29 c0 3d
       0.087705776 -0.0033053309 0.049861 0.09382966
0000a0 a8 56 83 bc b4 87 ff 3d c0 a7 f3 3c c8 0b b2 bd
       -0.016032532 0.12477055 0.029743075 -0.08693653
0000b0 14 9d 9c 3d 0e 18 ca bd 08 e2 86 3c 3c b1 de 3d
       0.07647148 -0.09867869 0.016465202 0.108736485
0000c0 f8 25 ee 3c 64 d7 06 bd 38 3c 48 bd 80 b4 d7 bd
       0.02907084 -0.032920256 -0.048885554 -0.105324745
0000d0 b4 22 a9 bd 98 d9 2a bd 40 9e ea bc e4 e7 b5 bd
       -0.08258572 -0.04171142 -0.028639913 -0.0888212
0000e0 f8 cc 2a bd 7c 58 d2 3d f8 ab 34 bd 6c 62 56 bd
       -0.04169938 0.10270783 -0.044109315 -0.052339956
0000f0 f8 ac b2 bc 84 c6 5e 3d 30 3a 94 bd 40 93 87 3d
       -0.021810994 0.054388538 -0.07237661 0.066198826
000100 ea b2 93 bd e0 2b a7 bd 80 f5 31 3c 1a ef b3 3d
       -0.072118595 -0.08162665 0.010861754 0.087858394
000110 cc 67 ff 3d 04 1c e8 bd 2a 0c b2 3d ae 39 df 3d
       0.124709696 -0.113334686 0.08693726 0.108996734
000120 88 72 1e 3d 44 98 31 3d d4 f3 ae 3d 50 99 2e bc
       0.038683444 0.043358102 0.085426 -0.01065667
000130 80 93 59 3c 22 02 cb bd 10 7f 1d 3c d0 04 db bc
       0.013279796 -0.09912516 0.009612814 -0.026735693
000140 06 9e dc 3d ec c2 94 bd 1c 54 f4 3d 22 e9 8f 3d
       0.10772328 -0.07263741 0.11930105 0.070268884
000150 78 fb 2a bd 1e c9 b2 3d 20 5d 89 3c 60 e4 aa 3b
       -0.041743726 0.08729766 0.016768038 0.0052152127
000160 40 06 2a bd 1c d1 04 3d cc 94 07 3d 48 1a 3d 3d
       -0.041509867 0.032425985 0.033100888 0.046167642
000170 90 fc 6c bd 56 5a 98 bd 34 3d 79 3d 2e 8e c5 bd
       -0.05785805 -0.07439105 0.060849383 -0.09646259
000180 d8 c5 32 bd 4c 03 2c bd 22 ae 92 3d a8 e6 58 bd
       -0.04364571 -0.04199533 0.071621194 -0.052954346
000190 a6 15 bd 3d 40 c8 02 bd 4a db c2 3d 82 06 e4 bd
       0.09232645 -0.031929255 0.09514482 -0.11134054
0001a0 40 96 73 3c fc b4 b1 3d fa ba 92 bd 72 d6 c3 bd
       0.014867365 0.08677098 -0.07164569 -0.095623866
0001b0 64 fa 85 3d bc ed 9d 3d 60 fa 4e bd c4 40 f9 bd
       0.06541899 0.0771136 -0.050531745 -0.12170556
0001c0 b0 f8 c4 3d 88 b9 8f 3d a0 e5 a7 bc a8 a6 f4 3c
       0.09617746 0.07017809 -0.020495236 0.029864624
0001d0 c8 7e fe bc 4e de 81 bd 24 9c 5e 3d 56 1f 87 bd
       -0.031066313 -0.063412294 0.054348126 -0.06597774
0001e0 bc c0 34 bd bc dc b5 bd 78 de 96 3d 48 20 ad bd
       -0.04412912 -0.08879992 0.07366651 -0.08453423
0001f0 00 8d 19 3c f0 7b b2 3c 9a 04 df bd a8 16 7e bd
       0.009371996 0.021787614 -0.108895496 -0.062033325
000200 dc e6 b3 3d 44 f9 0f bd f4 df c7 3d 04 c8 6b bd
       0.08784267 -0.035149828 0.097595125 -0.057563797
000210 70 6e ba bd b0 71 2c bd 24 b9 ef bd e8 17 b2 3c
       -0.091030955 -0.04210061 -0.11705235 0.021739915
000220 50 cf b3 3d 70 39 9f bd b6 f4 90 bd 78 7c 6c bd
       0.08779776 -0.07774627 -0.07077925 -0.05773589
000230 d0 f7 29 bd f0 78 7b bc d0 1a 41 bc 34 ba 3f bd
       -0.041496098 -0.015348658 -0.011786178 -0.046808437
000240 60 8a 14 bd 68 92 f9 bd 42 f4 df 3d ae 22 89 bd
       -0.036264777 -0.12186128 0.1093526 -0.06696068
000250 f4 39 c2 3d 0c 49 2a 3d d0 df 8b bc a6 0d e1 bd
       0.0948371 0.04157357 -0.017074496 -0.10988931
000260 ac 2d fd bd 48 e1 85 bc 00 98 45 ba 38 d7 bb 3d
       -0.12362227 -0.016342774 -0.00075376034 0.09171909
000270 e2 b7 c5 bd 92 53 eb bd 0c 10 4a 3d f0 59 e6 3c
       -0.096542135 -0.11490549 0.04933171 0.028119057
000280 e8 22 98 bd 90 55 4f bd 0a 2f 8e 3d 92 fa e1 bd
       -0.07428533 -0.050618708 0.06942566 -0.110341206
000290 2e d5 83 bd 38 f0 d0 bc e4 36 53 3d d0 a5 e3 3d
       -0.06437145 -0.02550517 0.05156602 0.111156106
0002a0 8c 00 65 3d 0c 45 f9 bd c6 56 e9 bd 0c 1f f5 3d
       0.055908725 -0.12171373 -0.11393504 0.11968812
0002b0 50 70 0e 3d 80 7f f2 bc 74 1e 48 3d e8 0e 17 3d
       0.03477508 -0.029601812 0.048857167 0.03687945
0002c0 e8 1a 64 3d 80 6b 02 bd 0e a5 8e 3d 74 47 06 bd
       0.055689722 -0.0318408 0.069650754 -0.032782987
0002d0 08 7f c8 bd 18 e2 60 bd d6 f8 9d 3d 78 f6 28 bd
       -0.09789854 -0.05490312 0.07713477 -0.041250676
0002e0 80 8b ce bd a4 7c 44 3d e0 c6 23 bc 68 b3 d1 bc
       -0.10085201 0.04797043 -0.009996146 -0.025598243
0002f0 2c a0 b5 3d a0 a4 70 bd 80 94 a6 3b e4 67 a2 3d
       0.08868441 -0.05875075 0.0050836205 0.07929972
000300 8c c5 8d bd 6e 6c 90 bd aa cb ed bd e0 c1 41 bd
       -0.06922445 -0.07051931 -0.116111115 -0.047304034
000310 3c 57 7e 3d f0 7a a7 3c 6c 29 62 bd 20 0e c8 3c
       0.062094912 0.020444363 -0.055215284 0.024420798
000320 00 67 ae bc 50 46 f8 3c 58 86 fc bc 9a b2 ad bd
       -0.021289349 0.030306965 -0.030825779 -0.08481331
000330 e8 4a 2e bd 3a 12 e5 bd 48 6c 13 3d c4 c5 4c bd
       -0.042551905 -0.11185117 0.035991937 -0.04999329
000340 a6 35 d0 bd 98 82 f2 3d 80 cc 04 bb a6 19 b6 bd
       -0.101664826 0.11841315 -0.0020263493 -0.08891611
000350 c0 78 78 bc c0 cf c9 3b 08 d6 ae bd 74 e0 0e 3d
       -0.015165508 0.006158799 -0.08536917 0.034882024
000360 48 31 63 bd 70 04 fd bc 90 f8 8e 3c 7a 79 bc bd
       -0.05546692 -0.030885905 0.017452508 -0.09202857
000370 f0 0a f6 3d 16 a7 f7 3d aa 3e 8e bd 3a 70 ae 3d
       0.12013805 0.12092416 -0.06945546 0.08517499
000380 f0 e5 ca bc c0 26 c7 3c 26 b0 c6 3d 3c f6 91 3d
       -0.024767846 0.02431047 0.097015664 0.071270436
000390 de cd c5 3d ca d9 cd 3d 3e 4b e7 3d 80 ec e5 bd
       0.09658407 0.100513056 0.11293648 -0.112267494
0003a0 88 6a 6e bd 10 b0 60 3c 10 24 d7 bc 14 2c c1 3d
       -0.058207065 0.013713852 -0.026262313 0.09432235
0003b0 78 64 d5 bd c0 3a 02 3d 6a f8 ab bd 6c b2 4a bd
       -0.104195535 0.03179431 -0.083969906 -0.049486563
0003c0 14 fd 3a 3d de 10 c1 3d 78 8f cd 3c 7c 0c 32 bd
       0.04565151 0.09427045 0.025092825 -0.043468937
0003d0 48 5b 8f bd 42 00 ea bd cc 66 e9 3d 98 a3 ea 3d
       -0.069998324 -0.114258304 0.1139656 0.11456984
0003e0 f8 56 a4 bc 1c dc a8 3d 9c f1 a4 3d c2 2d 94 3d
       -0.020061001 0.082451075 0.08053896 0.0723529
0003f0 dc f2 c8 bd 40 8d 5f 3d 12 c0 9d 3d bc 99 b9 3d
       -0.09811947 0.054578066 0.0770265 0.09062526

encoder.bias_ih_l0 f4 [256]
000000 ff c4 98 3e e4 ee 59 3e 88 43 ba 3d 60 6e d7 3d
       0.29837796 0.21282536 0.09094912 0.10519099
000010 d2 64 aa 3d 97 2d cc 3d 07 12 ce 3d 2b a3 e3 3d
       0.08320011 0.09969633 0.10062032 0.11115106
000020 a0 ca cf 3d 24 6b 84 3e a8 e0 94 3e a0 6b 95 3e
       0.101460695 0.25862992 0.2907765 0.29183674
000030 0b 90 69 3d 51 d5 19 3e 6c b8 35 3e 04 8a 8f 3e
       0.057022136 0.1502278 0.17746133 0.28034985
000040 a3 a1 b3 3c d3 c2 81 3e 8f 16 20 3e ee 1d 9c 3e
       0.02192766 0.25343952 0.15633605 0.30491585
000050 e7 e0 a2 3d ae bc 20 3e 32 42 5b 3e 4e 8c f8 3d
       0.07953053 0.15696976 0.2141197 0.12136136
000060 90 0e 58 3e 0f a4 96 3d d7 5c 89 3d 93 c4 be 3e
       0.21099305 0.073555104 0.06707161 0.3725935
000070 e1 ff 87 3d 83 29 5b 3d 6e 57 42 3d b9 32 16 3e
       0.06640602 0.053506386 0.04744666 0.14667787
000080 7b d9 08 3e f3 89 39 3e 7c 11 78 3e 0a 58 bb 3d
       0.13364212 0.1811903 0.2422542 0.091476515
000090 4c 39 7d 3e b9 d3 3b 3e 47 53 28 3e ed 9b c5 3d
       0.24728888 0.18342485 0.16438018 0.09648881
0000a0 40 c9 0f 3e 35 4e 5f 3e 0a cb c0 3d af 3a 26 3e
       0.14041615 0.21807177 0.09413727 0.16233324
0000b0 2e 3f 05 3e 64 a5 65 3e f7 75 88 3e 5a 79 27 3e
       0.13012382 0.22426373 0.266525 0.16354886
0000c0 3a 24 69 3e 16 9d 89 3e 5c 2a 9a 3e 42 1c 3f 3e
       0.22767726 0.2687766 0.30110443 0.18663123
0000d0 1a 3f 29 3d 1b 3f bd 3e 77 d5 a8 3e 48 94 61 3e
       0.041319944 0.36962208 0.3297536 0.22029221
0000e0 9f 45 17 3e 38 3e 89 3e f4 a5 84 3e 2c 35 7e 3e
       0.14772652 0.26805282 0.25907862 0.24824971
0000f0 84 7d 07 3e bd 47 df 3d 0f 0e 98 3e c1 a4 29 3e
       0.13231474 0.10902355 0.29698226 0.16566755
000100 18 6d 23 3d b0 32 62 3c ca 4d e9 bd c6 70 c9 3d
       0.03989896 0.01380603 -0.1139179 0.09835963
000110 1a dd a2 bd 0c 8b 92 3d d4 fe 1a bd 10 58 4a bc
       -0.07952328 0.07155427 -0.03784068 -0.012350097
000120 c8 c0 b6 bc 0c 5e d6 3d 20 86 f0 3c 40 11 a5 bd
       -0.022308722 0.10467157 0.02936083 -0.08059931
000130 20 45 d4 bb e8 ab 79 bd d0 d8 55 bd 9c 49 54 bd
       -0.006477967 -0.06095496 -0.05220872 -0.051828012
000140 46 51 e6 3d f8 73 73 3d e0 39 1a 3d 20 0a a1 bd
       0.112459704 0.05943677 0.03765285 -0.07863259
000150 da c1 c9 3d e0 82 dd 3b b4 42 02 bd 08 b7 00 bd
       0.098514274 0.0067599863 -0.031801894 -0.031424552
000160 ac 02 d1 3d a8 4d ca bd c8 d0 ae bc 42 c2 c4 3d
       0.10205588 -0.09878093 -0.021339789 0.09607364
000170 38 f2 4b bd b0 3b dc 3c 1a 56 bd bd e4 8c 1f bd
       -0.049791545 0.02688393 -0.09244938 -0.038952723
000180 dc 00 c0 3d 5c 99 be bd a6 91 c0 3d a0 8a 13 bc
       0.09375164 -0.09306595 0.0940278 -0.009005219
000190 b0 a1 c8 bd 18 4f eb bd a4 25 f1 bd b8 13 1c 3d
       -0.097964644 -0.11489695 -0.117747575 0.038104743
0001a0 80 e5 c4 3c 40 7f 31 bb 42 61 84 3d 70 2b 8f 3c
       0.024035215 -0.0027083904 0.06463863 0.017476767
0001b0 10 33 09 3d 18 5d 70 3d d0 56 3c bc 30 1b ce bd
       0.033495963 0.05868253 -0.011495307 -0.10063779
0001c0 4c e2 bc 3d c8 6a c3 3c 40 8d 72 3b d8 ca f9 bd
       0.0922285 0.023854628 0.003701046 -0.121968925
0001d0 ac a4 7d 3d 80 04 b5 ba a0 47 c8 bb c8 7f de 3d
       0.06192462 -0.0013810545 -0.006112054 0.10864216
0001e0 70 12 58 bc f2 c3 98 bd 60 04 81 bc 4c 82 61 bd
       -0.01318799 -0.074592486 -0.015749156 -0.0550559
0001f0 40 e9 88 bd 00 2f 08 3c 88 3e 2e bd 3e 1d f7 bd
       -0.06685114 0.008311987 -0.042540103 -0.120661244
000200 e3 aa 12 3e 54 2e 5b bd 8d 4d 46 bc 8a ce 73 be
       0.14323 -0.05351098 -0.0121034505 -0.23809257
000210 00 5f 24 3e a3 f3 55 bc 50 c5 6f bd 52 39 30 3e
       0.16051865 -0.013058576 -0.05853778 0.17209366
000220 b5 8f ef bd 6f b9 4d bd ad 99 90 3d 0c a0 05 3e
       -0.11697332 -0.05022567 0.07060561 0.13049334
000230 b1 5a 1a 3d 5e fa 49 bc 15 89 3c bc a8 47 e8 3d
       0.037684146 -0.012327759 -0.011507292 0.11341792
000240 70 98 4d bd a2 ed 80 3d 26 c6 95 bd 00 c1 45 be
       -0.050194204 0.06295325 -0.073131844 -0.19311905
000250 f9 bb fe bd 0e 5c 83 bc ed 62 19 3e 29 07 0a be
       -0.12438197 -0.016035106 0.14979143 -0.13479294
000260 4e 71 65 bd 72 ef f1 bd f5 7e 41 3b 6a 95 ed 3d
       -0.05601626 -0.11813249 0.0029525135 0.11600764
000270 89 78 1a bd 09 80 1c be 1f 4b 14 be 51 bf cc 3d
       -0.037712608 -0.15283217 -0.14481781 0.09997428
000280 58 07 33 3e 2c 43 ef bd c9 2f d5 bd ec 9c 35 3e
       0.1748327 -0.11682734 -0.10409505 0.17735642
000290 52 9d a2 3d 15 53 27 be b2 d6 6b be 49 1f 35 3e
       0.07940163 -0.16340287 -0.23031119 0.17687716
0002a0 df e3 f9 3d a5 29 b9 bd 1e 9d 4c bd 20 e8 33 3d
       0.12201666 -0.09041146 -0.049954526 0.043922544
0002b0 0d 75 9c 3c 66 5c 3c be d4 6b b3 3c 87 d2 d3 3d
       0.019098783 -0.18394622 0.021902002 0.10342889
0002c0 7c b2 e6 bd aa fa 45 3d 2f 77 3c 3d 93 46 12 3e
       -0.11264512 0.048334755 0.0460121 0.14284734
0002d0 ff 96 fb 3c 8d 9f 9f 3d 46 5d 1a 3d 2d 2d af bd
       0.030711649 0.07794104 0.03768661 -0.085535385
0002e0 ba 30 22 3d 7b bc c0 3b 40 75 a6 3d 8e 95 12 3e
       0.03959725 0.0058818436 0.081278324 0.14314863
0002f0 b5 3d 21 b9 96 c2 14 be 4e 1b 3f 3e 57 48 51 bd
       -0.00015377144 -0.14527354 0.1866276 -0.05109438
000300 fe 2e 48 3e 77 66 ed 3d fc 13 5f 3e af 4f 67 3e
       0.19549176 0.11591809 0.21784967 0.2258899
000310 b9 9e c4 3d 00 88 1f 3e 93 08 3e 3e c6 46 77 3e
       0.096005864 0.15579224 0.18557958 0.24148092
000320 f4 db 42 3e 3a 25 97 3e 20 c5 66 3e c6 ae 35 3e
       0.19029218 0.2952059 0.22536135 0.17742452
000330 51 fa 82 3e e4 ec 72 3e f4 13 36 3e 83 c1 4d 3e
       0.255816 0.23723179 0.17781049 0.2009335
000340 44 e0 8f 3e 33 80 6c 3e 72 58 16 3e 50 5b a1 3d
       0.2810079 0.23095779 0.14682177 0.078787446
000350 cf 86 47 3e 2c 44 15 3e aa f8 a4 3e 35 c2 97 3e
       0.19485019 0.14576787 0.32220966 0.29640356
000360 c8 65 2b 3e e1 e3 c7 3d 02 28 85 3d d9 7f b3 3e
       0.16738045 0.09760261 0.065017715 0.35058478
000370 45 09 84 3e b2 01 eb 3c 5e bb bb 3d 6c fe 9b 3e
       0.25788322 0.028687332 0.09166597 0.30467546
000380 68 b2 81 3e 7b 27 dd 3d a8 16 1b 3e fd 22 e3 3d
       0.25331426 0.10798546 0.15145361 0.11090658
000390 cb 4f 8f 3e 34 22 77 3d 51 fe 41 3e ef 7f 8e 3d
       0.27990565 0.060335353 0.1894467 0.06957995
0003a0 0a 38 1f 3e 1b 09 89 3e 75 4f 6d 3e a4 db 42 3e
       0.15548721 0.2676476 0.23174842 0.19029099
0003b0 f1 e5 2c 3e 71 5b 36 3e 48 6a 62 3e 73 e5 ba 3e
       0.1688459 0.1780832 0.22110856 0.3650318
0003c0 9d 12 b0 3d 12 80 c6 3e 84 94 d0 3e 31 91 4f 3e
       0.085973 0.38769585 0.40738308 0.2027023
0003d0 da a9 08 3e c6 82 91 3e f7 11 a8 3e f4 91 7a 3e
       0.13346043 0.28420085 0.32826206 0.24469739
0003e0 b9 08 e2 3d 77 e3 25 3e 37 82 95 3e 0e 4b 0d 3e
       0.1103682 0.16200052 0.2920091 0.13798162
0003f0 ac 68 2a 3e 31 e6 63 3e f3 4e 07 3e cb 95 18 3e
       0.16641492 0.2225578 0.1321371 0.14900891

encoder.bias_hh_l0 f4 [256]
000000 27 9f 9b 3e c8 d0 97 3e f9 2c 0c 3e 5e 07 10 3e
       0.3039486 0.29651475 0.1368903 0.1406531
000010 7e 33 4f 3e a0 63 19 3e 21 6a a7 3d 51 47 bf 3d
       0.20234486 0.1497941 0.08174539 0.093397744
000020 1a a0 3c 3e 9e 74 36 3e 1a 88 80 3e 59 66 86 3d
       0.18420449 0.17817923 0.25103837 0.0656249
000030 2f 46 0f 3d af 27 5a 3e bc 29 19 3e c7 1b 31 3e
       0.03497904 0.213042 0.14957327 0.17295752
000040 9a 11 ba 3d 5d d0 70 3e 67 36 75 3e a0 8a 4f 3e
       0.090853885 0.23516984 0.23946534 0.20267725
000050 0b 57 cb 3d c4 26 1c 3e 78 54 a3 3e 7c ee 42 3e
       0.099287115 0.15249163 0.31900382 0.19036287
000060 be d3 d4 3d 04 09 85 3e e3 ad e6 3d 24 5b 1c 3e
       0.10391949 0.2598344 0.11263635 0.15269142
000070 72 cf 0a 3e fa 1d 75 3e 15 3a 4a 3e 07 ee 61 3e
       0.13555697 0.23937216 0.19748719 0.22063456
000080 60 e8 9b 3e 31 ee 70 3e 5f 27 32 3e 5b 5a f9 3d
       0.30450726 0.23528363 0.17397831 0.12175437
000090 36 81 37 3e b6 3a 83 3e 03 1d 85 3e fb e5 17 3e
       0.17920384 0.2563073 0.25998697 0.14833824
0000a0 26 e2 1c 3e 2e 27 63 3d 1c 16 9f 3d 47 27 80 3e
       0.15320644 0.055457287 0.07767889 0.25029966
0000b0 a8 5f e7 3d 68 a9 e1 3d 18 9b 37 3e 5a 18 7c 3e
       0.11297542 0.1101864 0.17930257 0.24618664
0000c0 b7 a0 c3 3d d4 c7 b1 3e 08 25 89 3e 2c 54 ae 3d
       0.09552138 0.3472277 0.26786065 0.08512148
0000d0 79 05 20 3c d8 ab bf 3e 5a 5e 1b 3e 96 74 91 3d
       0.00976693 0.37435794 0.15172711 0.07102315
0000e0 bd 40 8d 3e 5f a6 61 3e fb 9f 33 3e a2 29 26 3e
       0.27588454 0.22036122 0.17541496 0.16226819
0000f0 a9 1b 3c 3e a3 ea 19 3e c4 cd 03 3e 4d 09 23 3e
       0.18369927 0.15030913 0.12871462 0.15921517
000100 14 f2 b6 3d 58 9c 8b 3c 8c 17 8d bd 88 24 c4 bc
       0.089328915 0.017042324 -0.06889257 -0.0239432
000110 12 21 e8 3d 40 b9 1a bb 10 88 a0 bd c0 3f 8e bc
       0.11334433 -0.0023608953 -0.07838452 -0.017364383
000120 ec 9a 32 bd f4 16 f9 bd 50 15 4e bc 06 a4 fd bd
       -0.043604776 -0.12162581 -0.0125783235 -0.123848006
000130 22 35 a5 3d 00 36 b3 bb 90 d3 25 3c ce 4b d1 bd
       0.08066775 -0.005469084 0.010121241 -0.10219537
000140 60 89 56 bc 52 81 cd bd 2c 9d e5 bd 60 4c c1 bc
       -0.013094276 -0.100344315 -0.11211619 -0.023595989
000150 40 21 2e 3b 56 70 86 bd 4e 9e a0 bd 06 7e e1 bd
       0.0026570112 -0.06564395 -0.07842694 -0.11010365
000160 0c 8c 3d 3d 78 d0 ee 3c 74 a5 2c bd f8 3f 92 3d
       0.046276137 0.02915214 -0.042149976 0.07141107
000170 78 e1 b2 bd 62 6f c7 bd a8 6c 0c bd 10 38 02 3c
       -0.08734411 -0.097380415 -0.03428331 0.007947937
000180 48 36 ad bc 20 86 80 3c 4a 0a e4 bd d8 06 fa 3c
       -0.021144047 0.015688956 -0.11134775 0.030520841
000190 46 67 b4 bd 14 6a 5e 3d a0 93 46 bd de b1 a2 bd
       -0.0880876 0.054300383 -0.04848063 -0.07944082
0001a0 e4 dc c8 3d a4 77 4b bd a0 f1 c2 bb 00 85 08 3c
       0.098077565 -0.049674645 -0.005949214 0.008332491
0001b0 94 b2 82 3d 84 c9 78 bd a0 5c 1e bc 00 1f 37 3b
       0.06381717 -0.060739055 -0.009665638 0.0027942061
0001c0 00 a3 8e bd 3c 14 32 3d a0 8e 0d bd c8 d5 d3 3c
       -0.069646835 0.04347633 -0.034559846 0.025858775
0001d0 04 a3 91 bd 30 f4 c5 3c c0 e8 43 bb 7e 82 fd 3d
       -0.07111171 0.02416429 -0.0029893368 0.12378405
0001e0 e0 28 cf bd 0a f9 e2 3d 28 5f 99 bd e4 43 2c 3d
       -0.10115218 0.11082657 -0.07488853 0.042056933
0001f0 58 d3 c8 3c 6c ad ca 3d 54 74 62 3d 36 7d c2 3d
       0.024514839 0.09896359 0.05528672 0.09496538
000200 a1 dd 49 3e 5e cf 27 3c 36 56 e7 bd 40 23 8a bd
       0.19713451 0.010242311 -0.1129574 -0.06745005
000210 f6 64 a4 3d a9 93 35 be 08 71 42 be 9b 3f f5 3d
       0.08027069 -0.17732109 -0.1898843 0.119750224
000220 21 56 2e be b5 06 08 bd e5 11 b0 3d 34 8a 59 3e
       -0.17025043 -0.03320952 0.08597163 0.21244127
000230 ae 6b d4 bd fb 99 11 3d 34 9a e4 3b a0 d7 5c 3d
       -0.10372101 0.035547238 0.0069763903 0.053916574
000240 61 de 24 be 0a 73 96 bd d9 f0 34 be a3 70 40 bd
       -0.16100456 -0.07346161 -0.17670001 -0.04698242
000250 ce f4 81 bd 35 cd 38 be 81 b2 2f 3e 23 94 ca bc
       -0.06345521 -0.1804703 0.17157938 -0.02472884
000260 a7 5c b5 3d 70 61 1c be 08 46 83 3d 6d c2 48 3d
       0.08855563 -0.15271544 0.06409842 0.049013544
000270 d5 bc b0 3c 5b 35 0c be 96 03 94 bd 72 7c 37 bd
       0.021574417 -0.13692228 -0.072272465 -0.044796415
000280 9e b9 43 3e 9a ff 92 3d bf ac 09 be 70 13 3a 3e
       0.19113776 0.071776584 -0.13444804 0.18171477
000290 04 91 0e 3e 27 fb 38 be 5f 4c d3 bd bd 6f b2 3c
       0.13922507 -0.18064557 -0.10317301 0.021781797
0002a0 f9 23 c5 3d cb d9 0c be 29 b7 ab 3c 9f 80 06 3e
       0.09626002 -0.13754956 0.020961361 0.13135003
0002b0 a7 1e fd bd be 60 79 be bb 5f 00 be 01 10 e1 3d
       -0.12359362 -0.2435331 -0.12536518 0.10989381
0002c0 6e 5f b2 bd e4 25 51 bd db 11 23 3e 2d de 1a 3e
       -0.08709608 -0.051061526 0.1592478 0.15123816
0002d0 2c 07 54 3c 50 68 62 3d 8a 13 31 3e 4d 0e bc bd
       0.012941163 0.05527526 0.1729261 -0.09182415
0002e0 20 67 d7 bd a9 21 db 3d 58 ef db 3d 27 9e 01 3e
       -0.105177164 0.106997795 0.107390106 0.12657987
0002f0 c6 ad c2 3d 36 16 4c be d2 4d 6c 3c 15 1e 45 bd
       0.09505801 -0.19930348 0.014422851 -0.04812439
000300 8c ca 47 3e 9a a4 69 3e 1e 0e df 3d 8b bc 4f 3e
       0.19510859 0.22816697 0.108913645 0.20286767
000310 1f 68 5e 3e 5d 6f ab 3d 55 51 7d 3e c2 be 6c 3e
       0.21719407 0.0837085 0.24738057 0.23119643
000320 98 76 d6 3d c4 75 a2 3e 9e c2 94 3e 04 4a 03 3e
       0.10471839 0.31730473 0.2905473 0.12821203
000330 77 66 82 3e f0 d4 4e 3e be 0d a8 3e db bf 8a 3d
       0.254688 0.20198417 0.32822984 0.06774875
000340 99 f7 ee 3d 4d 7d 3b 3e 92 13 5b 3e 71 b6 48 3e
       0.11668319 0.18309517 0.21394184 0.19600846
000350 97 45 32 3e 01 5c fb 3d 22 23 c8 3d ad 05 6e 3e
       0.17409359 0.12273408 0.09772326 0.23244353
000360 d0 6b 8a 3e 3f 0f 8f 3e f2 59 00 3e 79 00 cd 3e
       0.2703538 0.2794132 0.12534311 0.40039423
000370 8f 5d ee 3d 6c e8 0f 3e e1 bc 18 3e 6c 45 0f 3e
       0.11638939 0.14053506 0.14915802 0.13991326
000380 03 f2 1f 3e eb 98 ea 3d 7b 89 9d 3e 4b 85 cf 3d
       0.15619664 0.11454948 0.30768952 0.101328455
000390 9d c3 a3 3e 80 a1 54 3e bc 07 86 3e df 49 88 3e
       0.3198518 0.20764732 0.26177776 0.2661886
0003a0 63 51 26 3e 5e 3d f3 3d 37 94 a1 3e b5 e3 9b 3d
       0.16241984 0.11876939 0.3155839 0.07611791
0003b0 b7 83 9b 3e 05 8f ee 3d 7a a0 5a 3e 85 7c 13 3e
       0.30373928 0.116483726 0.2135028 0.14402969
0003c0 23 0c a3 3d 8e f8 af 3e 20 0e a4 3e 6f 93 6b 3d
       0.07961299 0.3436932 0.32042027 0.05751365
0003d0 20 d6 8b 3e 0c f4 ac 3e 96 3d 85 3e 80 01 06 3e
       0.27311802 0.33779943 0.2602355 0.1308651
0003e0 68 c3 7e 3e 6d ea 9d 3e c7 23 6f 3e 76 c6 ae 3d
       0.24879229 0.30842915 0.23353492 0.08533947
0003f0 bc 8a 5b 3e 2b 96 99 3e 8f 4d be 3d 12 ab b6 3d
       0.21439642 0.29997382 0.09292137 0.08919348

decoder.weight_ih_l0 f4 [256, 64]
000000 2f 15 c9 3d 35 e7 e3 3d ed 12 ec bd a4 9a c1 be
       0.098184936 0.111280836 -0.11527047 -0.37813294
000010 2b 30 07 3e 6a ad 6c be 26 96 f3 bd ad 3d 1a 3e
       0.13201968 -0.23113027 -0.11893873 0.1506259
000020 b1 9a f2 bd c0 c9 b0 bc e1 66 8d 3c 47 da 91 3e
       -0.11845911 -0.021580577 0.01726097 0.28486845
000030 24 b0 4f be 9f 09 c0 3e 93 23 5f 3e e2 7e 9b 3e
       -0.20282036 0.3750734 0.21790914 0.3037024
000040 a7 16 98 be 01 5a ce 3d b6 ec ad bd 14 72 86 be
       -0.29704782 0.10075761 -0.08492415 -0.2625891
000050 ee 04 85 be 67 e6 68 be 18 df e7 3c 47 86 91 be
       -0.25980324 -0.22744142 0.028304622 -0.28422758
000060 f1 e8 10 3d 78 13 6d be 1c cb 3b 3e 6d e8 1c 3e
       0.0353784 -0.23151958 0.18339199 0.15323038
000070 17 73 1c 3e af 53 50 be f6 03 39 bd 28 5a a2 3d
       0.15278278 -0.20344423 -0.045169793 0.07927352
000080 37 8d e9 3d 44 fc 65 be ec 06 ff bd 9a b7 34 3e
       0.11403888 -0.22459513 -0.12452492 0.17648163
000090 04 f7 8c 3e b5 0f 57 bd 56 fe 84 be 15 6e bc 3d
       0.27532208 -0.052505214 -0.25975293 0.09200684
0000a0 f9 cf 7e 3e b6 f2 8b bc 9f 1b 75 be 4d 3b 01 3e
       0.24884023 -0.017083507 -0.23936318 0.12620278
0000b0 e8 16 7c be 8d cd c8 bd 9d d2 d4 bd 3b 30 2a 3d
       -0.24618113 -0.09804831 -0.10391734 0.041549902
0000c0 03 59 a0 be 0c 47 34 3e 2f 1a 8d 3d ed 27 ce 3d
       -0.3131791 0.17605227 0.0688976 0.10066209
0000d0 3a d7 ca bd 5b 40 04 bc e9 9c 94 3e 6d 41 55 be
       -0.099043325 -0.008071984 0.29025963 -0.20825739
0000e0 2e 9a 16 be 2b 1f 6c 3e 35 c1 16 3e 8e 63 86 3e
       -0.14707252 0.23058765 0.1472214 0.2624783
0000f0 4a b2 fc 3d ea 98 68 be 9b b1 82 3e ec eb 8f bd
       0.123386934 -0.22714582 0.25526127 -0.070274204
000100 c7 b3 8e 3e 98 36 be 3e f4 dd ba be af 7c 7f be
       0.27871534 0.37151027 -0.36497462 -0.24949907
000110 29 9a 10 3e c8 a4 d5 bd a6 52 4c 3e b9 7e 33 3e
       0.14121307 -0.1043182 0.19953403 0.1752881
000120 d1 42 9b be bb 01 c5 be 1a 67 de bc be 36 d3 3c
       -0.30324414 -0.38477883 -0.027148772 0.025782939
000130 93 59 07 be bb f1 17 3c b4 0f 41 3e 10 6f 93 3e
       -0.13217764 0.009273942 0.18853647 0.2879567
000140 f3 1a 48 be 87 03 1f 3e 6e 1d 0a bd fe 97 e1 bd
       -0.1954153 0.1552869 -0.033719473 -0.11015318
000150 16 b2 8c be 0d 47 9b be 3e d7 60 3e c9 29 dd be
       -0.2747962 -0.30327645 0.21957108 -0.43195942
000160 58 f2 92 3e 1e db 30 be 51 83 00 3e e7 03 00 3e
       0.2870052 -0.17271087 0.12550093 0.12501489
000170 5f 4f 0c 3e 69 1a 82 bd d1 b2 e0 bd 30 0e 21 3e
       0.13702153 -0.063526936 -0.109716065 0.15728068
000180 22 a1 b6 3e d4 20 46 be 25 66 84 bd 88 67 15 3d
       0.3566981 -0.1934846 -0.06464795 0.03647569
000190 b4 ee e2 3d 92 c4 f1 bc 02 15 87 bd a8 10 1c 3e
       0.11080685 -0.029512677 -0.06595804 0.15240729
0001a0 d2 d6 8f 3d c9 e2 06 bd a0 0e 95 3c c0 ae 9a 3e
       0.070233956 -0.032931123 0.01819545 0.3021145
0001b0 63 4a df bd cf d8 84 be 75 5e 07 3e 2e a1 28 3e
       -0.1090286 -0.25946662 0.13219626 0.16467735
0001c0 63 e6 0a be 1b 5e cd 3e ec 4e d8 3c 99 bf 5c 3e
       -0.13564448 0.4011086 0.02640482 0.21557464
0001d0 5a 0b 9a bd f8 8e 90 bd b7 0a 59 3e c1 0e 27 be
       -0.075216964 -0.07058519 0.21195494 -0.16314222
0001e0 f4 1b bb bd 90 76 1d 3c 5f c1 14 3d 09 00 f9 3c
       -0.09136191 0.009610787 0.036317226 0.030395525
0001f0 7f 08 a1 3e a6 e6 94 be a4 0a 9b 3e 1c e6 c9 bc
       0.31451795 -0.2908222 0.30281556 -0.024645858
000200 ce 7e 90 3d b0 ff c9 3e e5 47 96 be 4d 35 7e be
       0.07055436 0.39452887 -0.29351726 -0.2482502
000210 44 1c b7 3d 50 88 d5 bd 97 b0 49 3d 67 96 20 3e
       0.08940938 -0.1042639 0.049240675 0.15682374
000220 a3 3d 9c bc ea 1d 53 be 81 ea f0 be 8e d4 62 3d
       -0.01907236 -0.2061688 -0.47053912 0.05537849
000230 b6 92 0d be a4 b1 17 bc fb b7 60 3e 06 59 9a 3e
       -0.13825497 -0.009258661 0.21945183 0.30146044
000240 c3 33 6e be b5 30 11 3e 5c d4 6c bc 62 bd bf bd
       -0.23261933 0.14178737 -0.014454927 -0.09362294
000250 ea 3b 26 be 63 eb 69 be ba 2b e3 3c 39 d4 66 be
       -0.16233793 -0.22843699 0.027730811 -0.22541894
000260 a7 ca c4 3e 6b f8 84 bd cc d0 ed 3d ab c5 b5 3d
       0.3843586 -0.064926945 0.116120905 0.08875593
000270 1d 1e 12 3e bd 4e 61 bd 0d 30 4c be 4f d2 82 3e
       0.142693 -0.05500673 -0.19940205 0.25551078
000280 d7 86 78 3e 7f cd f7 bc 7d f8 94 be 30 0d 46 3e
       0.24270187 -0.030249355 -0.29095832 0.19340968
000290 df 7e 6d 3e 4e 80 96 3d 08 d6 ed 3c cc 2b 2c bd
       0.23192929 0.07348691 0.029032722 -0.042033955
0002a0 f7 7d fa bc fa 80 54 bc 27 dd 05 be a5 b0 cb bc
       -0.030577643 -0.0129702035 -0.13072644 -0.024864504
0002b0 ec 2c 8b be bc b4 b6 be 72 84 aa 3e 56 c3 84 bd
       -0.2718271 -0.35684764 0.33304173 -0.0648257
0002c0 5b 89 9d be aa f1 02 3d 96 32 1b 3d 0d 21 e8 3d
       -0.30768856 0.03196875 0.03789004 0.11334429
0002d0 b9 81 51 be b1 58 88 3e f1 af 9f 3e 64 0f 1d bc
       -0.20459642 0.26630166 0.3118892 -0.009586189
0002e0 7c 26 0d be e6 fa 97 3d 8b 29 91 3e 33 70 77 3e
       -0.13784212 0.07420902 0.28352007 0.24163894
0002f0 c4 f7 80 3e 18 ea 4c be 24 d1 b8 3c e0 21 91 3b
       0.2518903 -0.20011175 0.022560664 0.004429087
000300 63 7e 51 3e c8 8a aa 3e f8 99 31 be f8 87 40 be
       0.20458369 0.33309007 -0.1734389 -0.18801868
000310 63 e3 23 3e 04 c8 79 be 9a d2 7e bd 85 84 d7 3d
       0.1600471 -0.24392706 -0.062212564 0.10523323
000320 22 e3 1c be 81 37 46 be 7b 5d e2 bd a5 89 99 3e
       -0.1532102 -0.1935711 -0.11052986 0.29987827
000330 e7 e9 b8 be 6d 62 24 3e 6e ce c3 bd 3b 02 86 3e
       -0.36115953 0.16053171 -0.09560858 0.26173577
000340 33 f3 b7 be 49 56 10 bd ef 1d e4 be ac 20 c4 bd
       -0.35927734 -0.035238538 -0.44554088 -0.09576544
000350 c6 8b a7 be 14 5b 0f bf 4a bf 8e 3e eb d2 be be
       -0.32723826 -0.5599835 0.27880317 -0.37270293
000360 dd 45 b4 3e 8b b5 b5 be a5 ee 26 bd 14 1b 8b 3e
       0.3520955 -0.3549007 -0.040754933 0.27169096
000370 97 5b 70 3d c9 2d 68 be d4 0d a3 be ac 69 75 3e
       0.058681097 -0.22673716 -0.31846488 0.23966092
000380 e1 85 af 3e e4 48 cf bc 4f a7 54 be cb 1d a0 3e
       0.3428183 -0.025303312 -0.20766948 0.3127273
000390 35 64 c6 3e b8 73 e5 be fb e2 36 be 66 4f 2d 3e
       0.38748327 -0.4481485 -0.17860024 0.1692482
0003a0 e1 77 33 3e 01 2f 8e be b9 41 b9 be 82 2c dd 3e
       0.17526199 -0.27770236 -0.36182955 0.4319802
0003b0 6a ab 71 be 8e 1e 9f be eb f2 bd bd 6b 4b 46 3d
       -0.23600546 -0.31078 -0.092748486 0.048411768
0003c0 ea ff ab be 4a 94 78 3e eb cf 29 3e 2f 45 03 3e
       -0.33593684 0.24275318 0.1658322 0.1281936
0003d0 9a ac 8c 3d 08 7c 75 3e 72 a4 f7 3c 40 0a 81 be
       0.06868859 0.23973095 0.03022978 -0.25203133
0003e0 58 f8 f6 bd 39 c2 dc 3e 93 e9 56 3e 58 f5 fc 3b
       -0.120590866 0.4311693 0.20987539 0.007719677
0003f0 29 ba bd 3e e7 ca a4 be c5 db 24 3e 72 ff a2 3e
       0.3705609 -0.32186052 0.1609946 0.31835514

decoder.weight_hh_l0 f4 [256, 64]
000000 a2 01 a7 bd 30 58 51 bd 52 15 d9 3d b4 98 95 3d
       -0.08154608 -0.051109493 0.1059977 0.073045164
000010 56 94 b8 3d 18 c8 92 3c 20 92 a6 bc 14 89 72 3d
       0.09012668 0.017917678 -0.02033335 0.05921276
000020 50 c7 42 bd 00 84 71 3a 20 a9 9e 3b b4 58 23 3d
       -0.04755336 0.000921309 0.0048419386 0.039879516
000030 70 a6 0b bd 78 68 3a bd b0 34 df bd f0 b0 47 3c
       -0.034094274 -0.045509785 -0.10898721 0.012188181
000040 8c 9b 99 bd f4 dd 12 3d 50 7b d2 bc 6a 89 e4 bd
       -0.07500371 0.035856202 -0.025693566 -0.11159022
000050 c8 b3 e9 bd 04 3b 67 bd 94 2e 2b 3d 22 85 f1 bd
       -0.11411244 -0.056452766 0.041792467 -0.11792971
000060 12 38 d5 bd 68 b6 6e 3d 28 ce 39 3d a6 5d ee bd
       -0.10411085 0.058279425 0.04536262 -0.11638956
000070 40 d1 af bd 20 b4 7f bc f6 4c b5 bd d8 4e f3 bc
       -0.08584833 -0.01560691 -0.0885257 -0.029700682
000080 f8 0d 1a 3d 5a 3d d9 3d 80 52 4f bb 34 fc 12 3d
       0.037610978 0.10607405 -0.0031634867 0.03588505
000090 70 0e 55 3d 50 f4 6d bd f0 07 70 bd 70 87 ad bd
       0.05201572 -0.058094323 -0.05860132 -0.08473098
0000a0 40 0a 56 bc 76 cd ae bd 40 fe 28 3d aa 3a c7 bd
       -0.013063967 -0.08535282 0.041258097 -0.09727986
0000b0 2c 93 a9 3d 84 37 1d bd 38 4c 89 3c c0 2b c0 3b
       0.08280024 -0.038383022 0.016759977 0.0058645904
0000c0 c0 df 80 3b 5e e4 fd bd de ad a1 bd 82 9b cb 3d
       0.003932923 -0.12397073 -0.07894491 0.0994177
0000d0 3e 20 ee 3d c8 b8 b1 bc 30 53 2f 3d 70 ca 1d bc
       0.116272435 -0.021694556 0.042803943 -0.009630784
0000e0 90 f0 ff bc ec 45 b3 bd e8 01 8e bc e4 17 c0 bd
       -0.031242639 -0.08753571 -0.017334893 -0.09379557
0000f0 f4 57 0a 3d 2a ef 92 3d 48 f8 0d bd 54 66 78 bd
       0.033775285 0.07174523 -0.034660608 -0.060644463
000100 2e 8f e8 bd 0e 71 99 3d d0 98 43 bd 18 2e bc bc
       -0.11355434 0.074922666 -0.047753155 -0.022971198
000110 50 d5 41 bc 48 e0 2f bd 80 d1 28 bb 48 71 dd 3d
       -0.011830643 -0.0429385 -0.0025759637 0.10812622
000120 b8 ac e3 3d 00 a0 af bc 58 ea c8 3d dc 50 3d 3d
       0.11116928 -0.021438599 0.098103225 0.04621969
000130 88 22 5c 3d 4e 75 9c 3d c0 40 ca 3b 64 7e 86 bd
       0.05374387 0.076395616 0.0061722696 -0.06567076
000140 18 68 9b bd 60 2c 42 3d dc d5 bf 3d 10 d4 0c 3c
       -0.07588214 0.0474056 0.09366962 0.0085954815
000150 4e e4 f9 3d f0 5d e3 3d 58 45 fb bc cc f3 3c bd
       0.12201749 0.111019015 -0.030672714 -0.04613094
000160 10 4a ab 3d d4 51 4e 3d fa ee a1 bd 26 3d 88 bd
       0.08363736 0.050371006 -0.07906909 -0.06652288
000170 ba 8b 8b bd c8 1a 5b 3d b4 b6 39 bd 78 51 53 3d
       -0.0681376 0.053492337 -0.045340255 0.051591367
000180 46 2d db 3d 68 38 ff 3d d6 3a bf 3d 48 c1 ac bc
       0.107019946 0.124619305 0.09337394 -0.021088257
000190 14 b6 ff 3d 38 1b ed 3c 3e 83 ad 3d 84 1b 20 bd
       0.124859005 0.028943643 0.08472298 -0.03908874
0001a0 36 f7 cc bd 60 6e db 3d e2 4d 85 3d 32 29 df bd
       -0.10008089 0.10714412 0.065089956 -0.10896529
0001b0 28 d5 dc bd 9c 4f e9 bd 28 d9 39 3d 50 ca 28 bc
       -0.10782844 -0.113921374 0.045373112 -0.010302141
0001c0 40 00 a9 bc e8 f7 79 3d d8 b4 44 3d 84 83 07 3d
       -0.020630002 0.061027437 0.04802403 0.033084407
0001d0 64 d6 41 bd 00 68 dc 38 14 35 9b 3d ac 0b 6f 3d
       -0.0473236 0.00010509789 0.07578483 0.05836074
0001e0 58 b2 bd 3d c0 04 da 3c 00 49 4e 3c 5e 43 99 bd
       0.09262532 0.026613593 0.012590647 -0.074835524
0001f0 5a d5 9b bd c0 a0 9e 3b 94 8e 63 3d 60 38 bc 3d
       -0.07609053 0.0048409402 0.055555895 0.0919044
000200 20 02 6f 3c 54 1a 54 bd 10 bf 0f bd 00 05 42 bd
       0.014587909 -0.05178292 -0.03509432 -0.04736805
000210 fa cf a4 3d 30 2e d3 bc b4 6d a7 bd a0 ea b8 3d
       0.08047481 -0.02577886 -0.08175221 0.09029126
000220 38 a1 f5 bd 74 07 19 bd 48 e0 e6 3d 98 da c9 3c
       -0.11993641 -0.037360623 0.11273247 0.024640366
000230 d8 3e bf bc 52 be f3 3d 88 39 15 3d 20 e7 dd 3b
       -0.023345396 0.11901535 0.03643182 0.006771937
000240 90 ab 92 3d 00 a4 ed bd 50 c6 e5 bc 40 6b 0a 3b
       0.07161629 -0.11603546 -0.028048664 0.0021121055
000250 14 2c f6 3d 74 8a 11 bd a8 92 07 bd 02 91 95 bd
       0.12020126 -0.03553243 -0.033098847 -0.07303049
000260 b8 15 f2 3c e0 a4 b1 bc 22 77 c9 bd 80 85 83 bb
       0.029551372 -0.021685064 -0.09837176 -0.004013717
000270 08 02 48 3d 5c 11 e0 bd 90 19 23 3c 54 f1 f3 3d
       0.048830062 -0.10940811 0.009954825 0.11911264
000280 3c 86 8d bd f8 5e 6f 3d 18 e5 d3 3d 1c 4f da bd
       -0.06910369 0.05844018 0.103464305 -0.1065962
000290 40 03 08 3d c4 8b d8 bd 34 d1 24 3d 40 4f c9 3d
       0.033206224 -0.10573533 0.040238574 0.09829569
0002a0 4c 47 48 bd e2 d5 cb bd 94 13 ad bd c0 a2 46 bd
       -0.04889612 -0.09952904 -0.08451 -0.048495054
0002b0 96 19 ad bd b8 31 59 bd 7c 45 65 3d 28 6f 5e 3d
       -0.08452146 -0.05302593 0.05597447 0.054305226
0002c0 fc 64 13 3d 72 f8 dd 3d cc 3d 21 bd 54 9d 81 3d
       0.035984978 0.10838403 -0.039365575 0.06328836
0002d0 40 6b ac bd 54 20 38 3d 58 07 e4 3d c0 99 9b bc
       -0.08418894 0.044952706 0.11134213 -0.018994212
0002e0 48 57 d7 3c 04 33 94 3d c0 9c 4e 3c c0 78 da bb
       0.026286736 0.07236293 0.012610614 -0.0066672266
0002f0 44 27 5c 3d 00 a6 cb 39 b8 88 5b 3d e8 a2 60 3d
       0.053748384 0.00038842857 0.053597182 0.05484286
000300 5c 19 86 3d 18 53 a6 3d c0 88 96 3c b0 e4 38 3c
       0.06547806 0.081213176 0.018375754 0.011284992
000310 76 7a 93 3d 50 3c 02 bc 32 70 d2 3d 28 e1 ba 3d
       0.07201092 -0.00794895 0.10275306 0.091249764
000320 ba ff c7 bd c0 67 14 bc 44 3e cf 3d b8 a8 74 bd
       -0.09765573 -0.009057939 0.10119298 -0.059731215
000330 d8 43 bf bc 06 60 a9 bd a0 4a a0 bb 12 39 ad bd
       -0.02334778 -0.08270268 -0.0048917085 -0.08458151
000340 38 9b 94 bc 80 da 59 bb e6 20 b8 bd c0 e9 53 3b
       -0.01814042 -0.0033241808 -0.0899065 0.003233537
000350 f6 77 dc bd 00 1b b4 3a 00 33 9d bc 4c 65 6e bd
       -0.10765068 0.0013740957 -0.019189358 -0.058202073
000360 70 35 f3 bc 6c 45 08 3d 28 fd f7 3d 00 9e 85 ba
       -0.029688567 0.03326933 0.121088326 -0.0010194182
000370 76 6a a7 3d ac 04 19 bd cc 7e 7f 3d 90 fa 9b bd
       0.08174603 -0.03735797 0.062376782 -0.076161504
000380 de 29 96 3d 28 be 2f 3d 4c 71 b5 3d 36 22 a5 3d
       0.07332204 0.042905957 0.088595 0.08063166
000390 50 ae 48 bc a0 b5 d0 3d a4 71 4d bd a8 28 c8 bd
       -0.012248591 0.10190892 -0.050157204 -0.097733796
0003a0 98 72 8d 3c 78 33 a3 bd f4 1d 71 3d f0 c8 1b 3d
       0.017266557 -0.07968801 0.058866456 0.038033426
0003b0 40 22 df 3b b0 0e 85 bd 00 2b c4 bc 80 05 b6 3c
       0.006809503 -0.06496942 -0.023946285 0.02221942
0003c0 c8 8c 47 3d 86 fa e5 bd 80 8e ba 3c 82 24 8e bd
       0.048718244 -0.11229424 0.022773027 -0.06940557
0003d0 60 4e c7 bb e0 6e 67 bc dc 9c ca bd 70 fd e8 3c
       -0.006082341 -0.014125556 -0.098932 0.02844116
0003e0 b8 21 c2 3c 96 a2 ec 3d c0 30 60 bb 00 07 bf 3a
       0.023697719 0.11554448 -0.0034208745 0.001457423
0003f0 9c 99 70 3d 0e bd e2 bd 6c cf 50 3d 20 4e b7 3d
       0.058740243 -0.110712156 0.050979063 0.08950448

decoder.bias_ih_l0 f4 [256]
000000 ae bf 4f 3e 6d c2 46 3e d0 8f 30 bb e0 37 c5 3e
       0.20287964 0.19410105 -0.0026941188 0.38519192
000010 33 bd 7e 3e 0e a9 49 3e 10 dc 0d 3d 43 21 d4 3e
       0.24876861 0.19693395 0.034633696 0.41431627
000020 c2 53 bf 3e d7 45 9d 3e a8 77 9f 3e 53 a0 4b 3e
       0.3736859 0.30717346 0.31145978 0.19885378
000030 39 7b 37 bd 03 be f8 3d 3e 9d 3e 3e e6 39 77 3e
       -0.04479525 0.12145617 0.1861467 0.2414318
000040 9f e0 2e 3e 20 9b 77 3e a4 21 ae 3d 21 1d b4 3d
       0.17077874 0.24180269 0.0850251 0.087946184
000050 9f 99 04 3e 0a 52 3b 3e 86 00 44 3e 46 ff 0e 3e
       0.12949227 0.18293014 0.19140825 0.13964567
000060 f0 cf a3 3d 5a 0b 5c 3e b0 d8 0f 3e 92 c9 9f 3d
       0.07998645 0.21488705 0.14047503 0.07802118
000070 5b 56 d4 3c 03 60 9c 3e 74 d0 29 3e 00 bd 86 3e
       0.025920084 0.30542 0.16583425 0.2631607
000080 2f d1 b4 3e a0 29 49 3e 75 b0 80 3e a6 12 f8 3d
       0.35315844 0.19644785 0.25134626 0.12112932
000090 e0 f2 ba 3e e6 b0 0e 3c 74 b1 84 3e 8f fd d2 3d
       0.36513424 0.008709168 0.25916636 0.10302269
0000a0 27 34 be 3d e5 59 83 bc d1 5a ac 3e 08 27 49 3d
       0.09287291 -0.016034076 0.33663037 0.04910949
0000b0 ac 85 b8 3d 44 7b c3 3c ba 54 2d 3e 6b 47 a5 3e
       0.09009871 0.023862489 0.16926852 0.3228105
0000c0 12 c0 3a 3e f9 93 20 3e b1 0a 7b 3e 48 23 b6 3e
       0.18237332 0.15681447 0.24515797 0.35573792
0000d0 6e 61 1a 3e 9d 97 03 3e 9b 83 66 3e 5f 2d 8d 3e
       0.15076229 0.12850805 0.22511141 0.27573678
0000e0 10 c9 3a 3e 16 1d 21 3e 31 d0 87 3e f2 fc d6 bc
       0.18240762 0.15733752 0.26526025 -0.02624366
0000f0 ae 23 04 3e ba eb 5d 3e 27 0a 8f 3e fe a2 c9 3d
       0.12904236 0.21671954 0.27937433 0.098455414
000100 ee 8f 89 3d b0 aa a6 3d 2e e3 f7 3d 62 29 8f 3d
       0.067169055 0.08138025 0.12103878 0.06990315
000110 92 cc 9f 3d 88 54 a1 bd 34 66 65 3d 92 34 e0 3d
       0.078026906 -0.07877451 0.05600567 0.10947527
000120 98 ea 30 bd d4 fe c1 3d 5e 96 a6 bd b0 63 45 3c
       -0.043192476 0.09472433 -0.08134149 0.012047693
000130 b2 a6 da bd f8 5b d7 bc 20 33 6f 3c a0 95 dc bd
       -0.10676326 -0.026288971 0.0145995915 -0.10770726
000140 38 f9 86 bc ae db a6 bd ae b4 93 bd 4a 52 a2 bd
       -0.016476259 -0.08147369 -0.07212196 -0.07925852
000150 b0 ec 83 bc ea 1e d9 bd 8c 12 60 bd e2 ea a7 3d
       -0.016104072 -0.106015995 -0.054705188 0.08199097
000160 ca ae e5 3d 82 4d f9 bd a8 95 92 3c 12 dd b7 3d
       0.11214979 -0.121729866 0.017893627 0.08977713
000170 02 01 c6 3d c8 8d ac 3c d4 a6 2c 3d 1a c7 b3 bd
       0.09668161 0.0210637 0.042151287 -0.0877821
000180 84 7f 99 bd 28 f2 31 3d 2c 1c ad 3d 58 31 63 3d
       -0.07495025 0.04344383 0.08452639 0.05546698
000190 9a 4c e3 bd ce e2 eb 3d 60 15 83 3d ba 1d 9f bd
       -0.11098595 0.11517869 0.06400561 -0.07769342
0001a0 98 06 fb bd 68 b1 ca 3c 54 88 58 3d 90 6a 81 3c
       -0.12257117 0.024742797 0.052864388 0.015797883
0001b0 c8 3d b8 bd fa 33 b5 bd a6 83 b9 3d ca 54 81 3d
       -0.08996159 -0.08847804 0.09058313 0.06315
0001c0 d4 33 aa bd 24 b2 21 bd ea f1 a2 bd 98 2b b8 bc
       -0.08310667 -0.03947653 -0.07956298 -0.022481725
0001d0 e0 9c 39 3d b6 93 9b 3d 0e cd 83 3d 2c 7e 26 bd
       0.045315623 0.07596533 0.064355955 -0.04064767
0001e0 10 d6 76 bc e8 ea 5c bd ca 8f ad 3d 94 0f 13 3d
       -0.015065685 -0.05393496 0.08474691 0.03590353
0001f0 b6 86 f1 3d b0 1f d6 bd 3e 52 c5 bd 38 75 a0 3d
       0.11793272 -0.10455263 -0.09634827 0.07834858
000200 a5 8f 55 3d 0b 5e ba bc cd 11 f4 bd 30 75 02 3e
       0.052138943 -0.022749921 -0.11917458 0.12740016
000210 85 6f f0 3b 72 f5 9b bd 83 38 d3 3d 16 5f 3a 3d
       0.007337513 -0.07615174 0.10313513 0.045500837
000220 0c ba 42 3e 42 d3 08 bd e7 ed 9c 3d 33 d1 e4 bc
       0.19016284 -0.033404596 0.07662564 -0.027931785
000230 10 3b 5e 3d 15 71 81 3d 80 d2 b8 bd 84 6d 19 be
       0.054255545 0.06320397 -0.09024525 -0.14983183
000240 5a 18 5c bd ff 59 ef 3d 0e a9 17 3d 58 21 c4 bd
       -0.05373416 0.11687087 0.037026457 -0.09576672
000250 44 25 10 bd b5 4e 1c 3e 95 e1 53 bd 05 04 b6 3c
       -0.03519179 0.152644 -0.051728804 0.022218714
000260 fd 48 13 3e 3d 35 64 3d 4e e0 af 3d 71 61 b9 bc
       0.14383312 0.055714834 0.085877046 -0.022629471
000270 73 29 2f be ce 95 9a bd 1a 53 5a 3e 96 27 98 3d
       -0.17105655 -0.07548104 0.21320763 0.074294254
000280 6f 91 81 bd f3 da 4b bd 49 6f fc bb 08 4d b2 bd
       -0.063265674 -0.049769353 -0.007703696 -0.08706099
000290 ae 72 87 3c 95 08 9e 3d 0c 08 90 bd 94 1a 9e bd
       0.016534176 0.07716481 -0.07032785 -0.07719913
0002a0 e9 ef 14 3d 58 c0 99 3c a2 9b a4 bd 46 5b 9b bd
       0.03636161 0.018768474 -0.08037497 -0.075857684
0002b0 48 36 ce bc c6 42 a9 bd 83 a8 45 bd c9 18 0c 3e
       -0.025172368 -0.08264689 -0.04825641 0.1368133
0002c0 f3 7a 40 be fd a7 f3 3d 3f fe 5c bd 9d 6e a7 bd
       -0.18796901 0.118972756 -0.053953405 -0.08175395
0002d0 f4 dd cd bd 0e 40 3a 3d fc 9b 2a 3e 74 8b 05 bd
       -0.100521 0.045471244 0.16661066 -0.032603696
0002e0 53 1b f5 bd f5 30 d6 bc c4 b2 37 bd 4e c6 89 bb
       -0.11968102 -0.026146391 -0.04484822 -0.004204548
0002f0 b1 34 ec bd 3c dd ff bc 07 b0 1a bd 8e bf 32 be
       -0.115334876 -0.031233422 -0.03776553 -0.17455885
000300 4e 9d 29 3e 99 ca 6d 3e 78 73 84 3e 5e f6 a0 3e
       0.16563913 0.23221816 0.25869346 0.31437963
000310 27 5d 5a 3e 20 6f 94 3e 10 17 83 3e 74 9c ec 3e
       0.21324597 0.28991032 0.25603533 0.46213114
000320 59 af ee 3e eb 0b 7b 3e 14 8c bb 3e 33 98 7d 3e
       0.46618155 0.24516265 0.3663031 0.2476509
000330 41 73 27 3e ba 0a 91 3e 04 10 44 3e 3a 81 db 3e
       0.1635256 0.28328496 0.19146734 0.4287203
000340 4e b8 16 3e ac 22 48 3e 63 a6 68 3e 53 e5 49 3e
       0.14718744 0.19544476 0.22719721 0.19716386
000350 75 4e a5 3d 3f d8 0c 3e 8a 41 47 3e 67 69 43 3e
       0.08071605 0.13754366 0.19458595 0.19083177
000360 64 25 99 3e 20 9b 64 3e 2a 2f 4d 3e c8 74 57 3e
       0.2991134 0.223248 0.20037523 0.21040642
000370 cf f7 13 3e 18 6f bc 3e c7 81 9a 3e eb 3e 93 3e
       0.1445 0.36803508 0.30177137 0.2875894
000380 29 37 9e 3e 97 fb ab 3d aa a8 a6 3e 75 d9 07 3e
       0.3090146 0.08397596 0.32550555 0.13266547
000390 9b f3 63 3e 9f 1d 4f 3c 98 e0 d4 3e 41 9b 7e 3e
       0.22260897 0.01264134 0.415776 0.24863912
0003a0 8f d8 1a 3d 3b 09 7b 3e 15 c8 b8 3e ce f3 38 3e
       0.037804183 0.2451524 0.3609015 0.18061754
0003b0 bd 3c 6d 3e ae 86 19 3e 1e d2 ac 3e 69 f1 d4 3e
       0.23167701 0.14992782 0.33754057 0.4159043
0003c0 de 85 4c 3e 48 e1 ac 3e 1f e1 c9 3e d2 98 ac 3e
       0.19972941 0.33765626 0.39429566 0.33710343
0003d0 cd 1a 35 3e e7 1b af 3e 04 1c 73 3e 93 33 9f 3e
       0.17686005 0.34200975 0.23741156 0.31094036
0003e0 32 71 c9 3e e0 11 2a 3e f4 13 6c 3e 37 02 04 bd
       0.39344174 0.16608381 0.23054487 -0.032228675
0003f0 90 19 40 3e 93 43 33 3e 68 ff d9 3e da ce bc 3d
       0.18759751 0.17506246 0.42577672 0.09219141
