src/backend/model.pth (torch, 224476 bytes, 10 tensors)

encoder.weight_ih_l0 f4 [256, 16]
00000000: e69f d13e 7780 a53d 8693 c23e 3838 843e
00000010: fe71 683e 8244 363d 59a8 053e d489 d63d
00000020: 56ac 463e c359 9d3d 9a2d eebd 10e5 04be
00000030: 107f c13d f3ee 04be 5904 893e ce42 613e
00000040: 3a16 98bd 2ee9 dbbe 4e47 833c f527 eb3d
00000050: ef7a cfbb f8ce 2f3e c868 6c3e 3d58 4b3e
00000060: 961e 533e daed 473e 1ca0 ff3d eb4e 12bd
00000070: da9c 56be 1906 d43d d2ad d4bd 28c6 acbc
00000080: 362f 103d bdfb 003f b72e 703d e3da 833e
00000090: 10c3 843e 189c f43d c5e0 263d ec2a 393d
000000a0: 0def 4a3e 454b 153e e7cd daba 1857 bb3d
000000b0: 1fd4 80bc 4a73 16bc eea3 6f3d 9939 883e
000000c0: df57 1f3e 037e 623d ba11 893e 30ef 753e
000000d0: bd6b f03d 9cfc 213e 58fb 643e b0a1 ff3d
000000e0: b776 d03d 7171 693e 4cd4 a33e dabe d8bc
000000f0: 8f16 e53c fa1c 4a3e a561 6bbe 90ca 6a3e
00000100: 2f82 ba3b 998c b0bd 918e 2c3d 1877 b23e
00000110: 2405 9f3e 1d11 4d3e 7142 993d e5c4 db3c
00000120: ff95 003e b5e8 9d3c 31ca 3dbe 49f2 dbba
00000130: 514a f2bd b5de e33d 96a8 5f3d e3ce cc3c
00000140: 350b 633e 5c34 9f3e 8e82 3a3e 5818 d63d
00000150: 41f2 973e a1ea 4f3e dc2c 59bc 1043 133c
00000160: 9a66 d53d c0c4 0dbe 4f81 f43d d265 49be
00000170: 74fb 1e3e b3fd 06bd 7ffd e5bc d836 2b3e
00000180: 3d8e 9a3e 838f 823e e99b a23e ebf6 4d3e
00000190: 88d8 073e bdbd 033c c466 993e b11d b43d
000001a0: f32a ba3e 2933 0b3c 7e46 09bc 9d50 2e3e
000001b0: 9839 80bd 546a 8ebd 6d87 43be c1d9 b83e
000001c0: 8854 463e 1159 12be ed01 8f3d aeee eb3d
000001d0: 6a4c da3d 9c6b 5f3d d4eb 793d 1b60 903e
000001e0: ad22 0d3e 65ba 7cbe 7d86 d8bc b004 8ebe
000001f0: 1159 41be e3c7 dabd 02cd 3a3d 78dd 43be
00000200: 7fef 8e3e 02b0 743e 49cd 383e a4ad 013e
00000210: 82f8 dd3d 1be9 8b3e 68eb 943e 4d01 6b3e
00000220: b387 353e 98a0 ce3d 777c f83d 9bba 6f3e
00000230: 597f 0ebe a30d 0a3e ceaf b53d f7a7 8bbd
00000240: 860b 223e c0af 3cbe f85a 8c3b b1fc c6bd
00000250: 3456 663d 1f04 4a3e 5575 3d3e 58ca 053e
00000260: 32a8 133e 6093 233e d76a 83bd ba1f 92bd
00000270: d66d 453e fad4 c93d 7ae9 443e 6b32 293e
00000280: 22fb 243d 128c 603e c041 433d 525f 2f3e
00000290: 04c3 353e 42c7 60bb d01e 433e 104f 643e
000002a0: a716 283e 42e3 643d 1cdf 86bc be77 2cbd
000002b0: ab96 413e c443 91bd 3eef 36be 623f 3b3d
000002c0: ca5a 943c c30a d53d ff30 903d 9e5e 813e
000002d0: 0eab ae3e e0e9 663d 02da 663e 1b7e 383e
000002e0: c9dd 323e 6f38 fc3d e477 2dbd 41cc 233d
000002f0: 8df2 44bd b1c9 a93b 6f78 8c3c 85d3 2d3e
00000300: 359d 3d3e 1ea8 df3e d0b8 553e 7295 103e
00000310: a599 4f3e 0bff 2a3e 84b5 833e ba71 f13d
00000320: b577 2e3e 1e49 cbbb 5d71 08bc 7850 3b3d
00000330: 7353 6abd f5c2 943b 2708 3d3e 24d0 a93d
00000340: 9eaf 5a3e b178 a83e f960 c03d edef bd3e
00000350: e4e5 173e bd4a 5e3e 8400 bebd 83bc 3a3e
00000360: 0eb0 463e 87b8 2cb9 0ef4 393d d89d 653d
00000370: 5554 053e ffcd 2f3e a507 4c3e 3cfa 30be
00000380: 68c4 de3e 9bef 74bd 5ff8 843e 3427 8b3c
00000390: 54fc a13d 9c8e 923e 789e d33b 7329 693e
000003a0: c49b 1e3e 9474 1a3d 0e9e f0bd e095 803d
000003b0: 42e2 60bd 470c 65bd bcfe abbd 9e5e dbbd
000003c0: 0702 083e 690b b03d 1a6c c43d af9d a23e
000003d0: 2012 5e3e ae9b 273e a14d 613e 4109 af3d
000003e0: c899 a73e a424 3b3e 1dec 9c3d 63e3 833d
000003f0: 85a8 1a3d b114 7b3d 440a 10bd 482f 1f3d
0.40942305 0.08081143 0.38003176 0.25824142 0.22699735 0.044498928 0.13052501 0.104755074
0.19401678 0.07683136 -0.116297916 -0.12978005 0.094480634 -0.12981777 0.2676113 0.2199814
-0.074261144 -0.4295134 0.016025212 0.114822306 -0.0063317935 0.17168796 0.23086846 0.19857879
0.20617136 0.19524327 0.1248171 -0.035719793 -0.20958272 0.103527255 -0.10384716 -0.021090582
0.035201274 0.5038412 0.0586383 0.25752935 0.2593007 0.11943835 0.0407417 0.04520695
0.19817753 0.14579494 -0.0016693444 0.09147471 -0.015726147 -0.0091827605 0.058505945 0.26606444
0.15560864 0.055295955 0.26771337 0.24017024 0.117392994 0.15819019 0.22361505 0.12482011
0.10178893 0.2279718 0.31997907 -0.026458193 0.027964858 0.19737616 -0.22986467 0.22928834
0.0056917886 -0.08620567 0.04212815 0.34856486 0.3105861 0.2002606 0.07483376 0.026827285
0.12557219 0.019276002 -0.18534161 -0.0016780581 -0.11830581 0.11126462 0.054604135 0.025000995
0.22172244 0.31094635 0.18213865 0.10453862 0.29677013 0.20304348 -0.013255324 0.008988157
0.1041996 -0.13844585 0.11938726 -0.19667748 0.15525609 -0.03295679 -0.028074978 0.1672014
0.30186644 0.25500116 0.31759575 0.20113723 0.13266194 0.008040843 0.29961216 0.08794726
0.36360893 0.008496084 -0.008378623 0.17022939 -0.06260985 -0.06953874 -0.1909463 0.36103633
0.19368184 -0.14291789 0.06982789 0.11520134 0.10659106 0.054545984 0.06101592 0.28198323
0.13782759 -0.24680479 -0.026431317 -0.2773795 -0.18881632 -0.106826566 0.045605667 -0.19127452
0.27917096 0.23895267 0.1804706 0.12663895 0.10838415 0.27326283 0.2908585 0.22949715
0.17727546 0.100892246 0.12133115 0.23411028 -0.13915767 0.13481764 0.08871423 -0.06819146
0.15824708 -0.18426418 0.0042833053 -0.09716166 0.056234553 0.19728135 0.1850179 0.1306547
0.1441963 0.15974188 -0.064168625 -0.071349576 0.1928018 0.09855075 0.19229689 0.16523139
0.04027856 0.21928433 0.047670126 0.17126206 0.17750174 -0.0034298454 0.19054723 0.22295785
0.16414891 0.055880792 -0.016463809 -0.042106383 0.18905132 -0.070930034 -0.17864701 0.045714743
0.018109698 0.10402443 0.07040595 0.252675 0.3411488 0.056375384 0.22544101 0.18016855
0.17467417 0.12315451 -0.042350665 0.039989714 -0.048082877 0.005181514 0.017147271 0.1697522
0.18517001 0.4368295 0.20871282 0.14119509 0.20273454 0.16698854 0.25724423 0.1178927
0.17037852 -0.0062037846 -0.008327809 0.045731038 -0.05720849 0.0045398423 0.18460141 0.08291653
0.21356055 0.3290458 0.09393496 0.3709711 0.1483379 0.21708198 -0.09277442 0.18235974
0.19403097 -0.0001647194 0.045398764 0.056058735 0.13020451 0.17168425 0.19924791 -0.17282957
0.4350922 -0.059798818 0.25970742 0.016986467 0.07909456 0.28624427 0.0064581 0.22769718
0.15489107 0.037708834 -0.117488965 0.062785864 -0.054903276 -0.05591991 -0.08398196 -0.10711406
0.13282023 0.08595926 0.09590931 0.31760928 0.21686602 0.16367981 0.2200227 0.08546687
0.32734513 0.18275696 0.076622225 0.06439855 0.03775837 0.06129903 -0.03516604 0.03886345

encoder.weight_hh_l0 f4 [256, 64]
00000000: 6056 163c 3cf0 41bd a427 d8bd 9052 febd
00000010: d86b 54bd 40ee 313d 701f cbbd 60f1 5d3d
00000020: 64c9 793d 98f4 c13c 08e7 3b3d ec96 043d
00000030: ba74 9dbd 48f2 cbbd 8823 473d 2ed3 8abd
00000040: a4bf b63d 40e5 733d 22e2 ed3d bc57 54bd
00000050: 8652 d53d 8012 b83d fccd 0c3d 822b e9bd
00000060: 50f8 563d 1ac2 b53d 909e 2b3c 1e52 d63d
00000070: 5029 85bd 404e c4bd 708d 063c 525f 9fbd
00000080: b4ff d23d a07a 38bc 605a 16bd 30f2 8bbd
00000090: 3e60 b7bd b2bf acbd 128e 8abd 3810 9f3d
000000a0: 5419 bb3d 0cf9 e73d 6043 ee3d c428 b13d
000000b0: 40e4 113d 00aa fb39 d069 5ebc de17 aabd
000000c0: 3c1c c73d f879 a8bc 6021 43bd ea9d cf3d
000000d0: 1889 efbc 0001 f3ba d2a5 e1bd ac11 06bd
000000e0: 5216 95bd 7c59 5cbd 242a 843d 3414 19bd
000000f0: 0076 4a3b f236 bcbd b850 d8bc f6e4 d4bd
00000100: 18b2 b13d 60fe d33b 689e 063d 1255 c5bd
00000110: 7e32 d23d e2f9 893d 9439 f0bd c8e8 90bc
00000120: d26c 803d d432 153d c2aa a5bd 9e7a a6bd
00000130: 6ae0 96bd a890 ccbd 2c69 58bd 10ce 7abc
00000140: fc5a 24bd 30b1 423d 189c dbbd 4649 d8bd
00000150: 5013 21bd b6c3 b23d 522b b2bd ea7b a03d
00000160: cce3 823d e091 b03b a06f dd3d fc35 3f3d
00000170: 327c fe3d f0e9 29bc 2009 983d 76cd b7bd
00000180: 0023 b13c 56b3 bb3d 9aa4 fcbd 72b3 96bd
00000190: f0ca 973d 10d4 6d3c b091 8abd c844 a4bc
000001a0: 5087 733c f854 943c c02b 713c 9ce6 483d
000001b0: 903d 1f3d f071 d0bc f229 8cbd 5825 df3c
000001c0: b65f ef3d f678 b3bd 36fd d23d 6cc5 3bbd
000001d0: f05f 80bc 229f f2bd 36ca e03d 3831 d83c
000001e0: 903a e33d 285f 8e3d 9e62 9ebd 80be 343b
000001f0: 68ff db3c e89b f7bc 4cb6 f3bd 9075 af3d
00000200: 2022 aa3b a064 99bd f8cf 303d e04b 0f3d
00000210: f60a d3bd 3083 b2bd f89d 8dbc cce6 62bd
00000220: 4ef3 d5bd 8c29 0a3d fc48 c13d 4c36 d33d
00000230: 001e f8ba 0e8b cb3d 4032 2bbc bcbc babd
00000240: 18e2 02bd c2c4 febd 30f8 31bc 8cd6 943d
00000250: 18bf bcbc f895 a33c 2aad af3d c642 8f3d
00000260: 44ca 2b3d 58f8 1a3d 1824 663d 404e 5a3d
00000270: c077 573c 1c97 843d f009 c5bd 8a2b abbd
00000280: 6846 b1bd 6cbc 6e3d f0cd dfbd 3c80 a6bd
00000290: 647c 9abd 007a bb3d 3cfa 4c3d f08d 03bc
000002a0: b208 d1bd 0419 75bd 6ace f43d f000 dfbd
000002b0: c401 14bd f077 aabd 345e d53d ca3a 95bd
000002c0: 8ce4 0b3d 3c57 863d 58b5 c6bd 1014 e4bd
000002d0: 6012 bb3c 7085 76bc b852 1c3d 00c4 1abc
000002e0: 2010 713d 5878 a8bc 407d 57bc f055 25bc
000002f0: c0b7 863d 223e 9f3d a2f9 ac3d 3c51 28bd
00000300: ce54 883d 6899 b53c 549b 8c3d c0e4 94bb
00000310: a035 88bb e0cc 913d d0b3 483d 20d5 4dbd
00000320: 7e25 a03d c84f 4ebd 5cd9 a53d 0272 fabd
00000330: a4de 603d a810 513d 90f6 b0bc 5602 8b3d
00000340: b0b8 a83d f06e f83d 9435 9dbd 88b9 d93c
00000350: f86f 5bbd e072 363d 145c a73d 2488 be3d
00000360: 08f1 cfbc 62a6 c6bd d827 603d 0e27 f33d
00000370: 2820 ee3d 1afb afbd f8ad b63c 8078 bfba
00000380: b48e 32bd 7878 d6bc c2c4 a7bd 2683 d03d
00000390: 2c09 a3bd 6c06 053d c089 56bc c22b fa3d
000003a0: 4c17 23bd 18f1 a53d e029 b43b 50e5 cbbc
000003b0: 74da e03d 384b ddbd d681 84bd 1652 b5bd
000003c0: f8eb a73d 9443 8fbd 409b 743c 48f3 6d3d
000003d0: 76af d9bd 46d6 b3bd 2cec 9abd 8cfe 4cbd
000003e0: a2ae efbd 1cb5 59bd f2f2 a73d 2008 7f3d
000003f0: 806b 6e3b 8e09 c6bd d87e 0a3d f87e b23c
0.009175867 -0.047348246 -0.10554436 -0.12418091 -0.05186066 0.043440104 -0.099181056 0.05418527
0.060983077 0.023676202 0.045874625 0.032370493 -0.076882794 -0.09958321 0.04861787 -0.067785606
0.08923271 0.0595448 0.11615397 -0.051841483 0.10416131 0.089879036 0.03437613 -0.113852516
0.052482903 0.088749126 0.010474816 0.10464881 -0.0650202 -0.095852375 0.008212432 -0.07781853
0.10302678 -0.011259705 -0.036707282 -0.06833303 -0.089539036 -0.084350005 -0.06765379 0.07766765
0.0913569 0.11326799 0.116339445 0.086503536 0.035618067 0.0004800111 -0.013575032 -0.083053336
0.09722182 -0.020565972 -0.04763925 0.101375416 -0.029240176 -0.0018539727 -0.11017956 -0.032731697
-0.07279648 -0.053796276 0.0645335 -0.037372783 0.0030893087 -0.091901675 -0.026405677 -0.10395233
0.08676547 0.006469533 0.03286591 -0.096353665 0.10263537 0.067371145 -0.11729732 -0.017689124
0.06270756 0.036425427 -0.0808921 -0.08128856 -0.07367022 -0.099885285 -0.052834675 -0.015307918
-0.040125832 0.04753226 -0.10723132 -0.10560851 -0.03932506 0.08728735 -0.08699669 0.07836135
0.06391105 0.0053884834 0.108123064 0.046682343 0.12426032 -0.010370716 0.074236155 -0.089747354
0.021623135 0.09165065 -0.12336083 -0.07358445 0.07411754 0.014515892 -0.06766069 -0.020052329
0.014863804 0.018106923 0.0147199035 0.04904805 0.03887707 -0.025444955 -0.06843938 0.027239487
0.11688177 -0.08763306 0.103022024 -0.045842573 -0.015670747 -0.118467584 0.10976069 0.026390657
0.11095154 0.06951743 -0.077336535 0.0027579367 0.026855186 -0.03022571 -0.11900005 0.08567345
0.0051920563 -0.07489896 0.043167084 0.03498447 -0.10304825 -0.08716428 -0.01728724 -0.055395886
-0.10446797 0.03373103 0.09437749 0.10313091 -0.0018929839 0.09938632 -0.010448992 -0.091180295
-0.0319539 -0.12439872 -0.010862395 0.07267484 -0.02304034 0.019968972 0.0857795 0.06995158
0.041940942 0.037834495 0.056186765 0.05329728 0.013151109 0.06474134 -0.09621036 -0.08357914
-0.08656007 0.05828516 -0.10927951 -0.081299275 -0.07543257 0.09154129 0.05004333 -0.008029446
-0.102067366 -0.05983831 0.11953433 -0.10888851 -0.036134496 -0.083236575 0.104183584 -0.07286604
0.034153506 0.065596074 -0.09702557 -0.11136639 0.02283591 -0.015046462 0.038164824 -0.009446144
0.05885327 -0.020565197 -0.0131524205 -0.01009129 0.06578016 0.07775523 0.08446051 -0.041093096
0.066568 0.022167876 0.06865564 -0.0045438707 -0.004156783 0.07119155 0.048999608 -0.05025208
0.07819651 -0.050369054 0.08098099 -0.122287765 0.054899827 0.051041275 -0.021601945 0.06787555
0.08238351 0.12130535 -0.07676235 0.026577726 -0.05357358 0.044543147 0.081718594 0.093033105
-0.025383487 -0.09699704 0.054725498 0.118726835 0.11627227 -0.08592816 0.022299752 -0.0014608055
-0.043593124 -0.02618049 -0.081918254 0.101812646 -0.07960734 0.032476828 -0.013094366 0.122153774
-0.03981714 0.081026256 0.005498156 -0.024889618 0.109791666 -0.108053625 -0.06470077 -0.08853547
0.08199304 -0.069953114 0.014929593 0.05809334 -0.1062917 -0.08781104 -0.075645775 -0.050047442
-0.117032304 -0.053151235 0.08200635 0.062263608 0.0036379993 -0.09669791 0.033812374 0.021789059

encoder.bias_ih_l0 f4 [256]
00000000: a3a3 293e 0e98 793e 7135 ef3d 3a07 4d3e
00000010: 95a3 5e3e 58f2 a13c 8fa8 233e 7f04 813e
00000020: 6824 b33d f4a7 653e c347 743e 8884 183e
00000030: 856a 123e e804 3c3e e2ef 913e 9113 b23e
00000040: f127 693e 8c8d 8d3e 7330 a33e c7d9 9a3e
00000050: e242 053e 2813 453e ad43 9c3d 47c9 aa3e
00000060: 892f 743d cd94 5e3e f8dc 933e 3351 a23e
00000070: 9824 5c3d be95 5f3d 3834 7a3d 6eeb 043e
00000080: 7fae 413e 2231 173e 1ad3 7b3e b372 123e
00000090: 6c30 7f3e 9e3f 933d 20f0 5c3e 7b89 cb3d
000000a0: a911 543e f147 453e d1da 6e3e c0c4 983d
000000b0: 1351 213e 9df8 6c3e 17e5 413e ba52 913e
000000c0: cb2d 1a3e 9ba0 373e 1d33 7e3e affb 023e
000000d0: 2356 f73d 64e1 ce3d ae36 8e3d 5da2 2e3e
000000e0: 44df 8d3e 334c 603e 05b7 3a3e 811f 423e
000000f0: d0c7 133c 4062 013d 280f af3d 236f c93d
00000100: 0825 acbd c20f e6bd 2a94 e43d a059 9e3c
00000110: d081 743c 207a a23d 7c99 15bd ccf4 a7bd
00000120: d82c f93d 8cf3 86bd e0b6 eebd d8c5 bb3d
00000130: f232 87bd 20b9 f93b 0002 b43c 14e3 36bd
00000140: 8ca8 ebbd a0fb e5bc 5c98 a6bd 42a7 803d
00000150: ae65 afbd 3835 7cbd 1854 d13d b6f6 ca3d
00000160: b84e cdbd 50d4 a2bd 4cb6 a2bd a056 f6bd
00000170: ac4c 083d 60ec 99bc 0680 9bbd 62ea cabd
00000180: 9411 30bd 208a f93b 088a 5abd 6c2e 6ebd
00000190: 300f 9a3d 4213 e4bd 34dd 88bd 4881 083d
000001a0: 2c74 b2bd 8281 d83d c014 eabd 4482 c1bd
000001b0: 98e7 123d 3015 2c3c 74f3 3a3d 5e20 84bd
000001c0: 0231 fa3d 809c c3bc b885 efbc 4c83 14bd
000001d0: a896 8ebd 622e 85bd b8a2 573d c0a2 713d
000001e0: 7c67 bdbd 3417 38bd 7add 82bd 74de 2a3d
000001f0: c8c4 5bbd da3c 813d 50cf eebd 6005 363c
00000200: 8bc8 01be 1b45 abbd 5b53 1dbe e7e8 2c3e
00000210: 81bd 1b3e 9e82 34be cc9a 0e3e 247e 403e
00000220: 489f 103d 082f 343e 8bd9 e03d f1cb fc3d
00000230: 8d7e df3d e5d6 17be 60c9 02be 8924 023e
00000240: 03a4 083e 11f7 3cbe adb1 803e c9ae 203e
00000250: ea3a 2e3e 60dd 5abe a850 48be 6e0e 843d
00000260: 19ab 23bd 4044 97bd 5fa7 c7bd fdaa d63d
00000270: d3de acbd 6aeb 113e bca6 14be 4d69 9cbd
00000280: d4e8 f43d 51f1 943d 083b 13be 6065 233e
00000290: e998 0a3d 2539 9ebd e8fd 0bbe a148 8e3d
000002a0: 9547 8b3d fe68 d7bd 95b9 893c 1c52 0ebe
000002b0: e6e5 0f3e 2300 cd3d 4878 0abe 532b 2bbe
000002c0: bb19 753e ec0f b2bd aacf 9cbd 1d9b d03a
000002d0: 7404 213c 1743 31be 3431 20bd fa0d 83bd
000002e0: c171 47bd f078 f73d 0310 45be 76aa 31be
000002f0: f504 153e a6b5 b8bd cf41 f7bc cf81 d33d
00000300: fa37 4e3e 1c26 5c3e 39b5 053e 7f80 0f3e
00000310: 7c1b 7f3e dec2 c43d 2863 393e 8c04 f43d
00000320: 71d8 813e 9566 4f3e a0d4 273e 7d2d 753e
00000330: e635 e23d 54d4 5d3e 950a b03d ccd2 c43e
00000340: 2bd5 e73d 4268 873e be5d 523e db34 933e
00000350: a24b 903e 599d 8a3e e976 103e a916 b43e
00000360: bc2a 4e3e 8759 9a3e 1f23 793e 598d 6b3e
00000370: cf3b 8e3e 2009 873e 3e10 743e 566d 893e
00000380: be33 913e 8ec9 8e3e 3be7 093e 752c 593e
00000390: 0d82 593e 17f3 873e 6b48 8e3e 1c95 f73d
000003a0: 658b fe3d 8417 b93e e2f0 e63d a052 683d
000003b0: 0c14 a93e 533c 5f3e 7928 263e 452f 9f3e
000003c0: 25e7 973e 59f4 9b3e 37e1 9c3e bbfd 083e
000003d0: 1f9f 9f3e a149 b43d c7ca 963e 647c 943e
000003e0: ee3f d13d a307 043e 3c3a 5c3e ced8 233e
000003f0: bfc1 1e3e 6d9b 0d3e 5e7d 683e a426 e83d
0.16566329 0.2437441 0.11680115 0.20022288 0.21742089 0.019768879 0.15982269 0.25198743
0.08747178 0.2242735 0.238555 0.14894307 0.14298446 0.18361247 0.2850333 0.34780553
0.22769143 0.27647054 0.318729 0.30244276 0.13013795 0.19245589 0.07630096 0.33356687
0.059615646 0.2173645 0.28879523 0.31702575 0.053745836 0.054586165 0.061084956 0.12980434
0.18914221 0.14764836 0.24592248 0.14301567 0.24920815 0.071898684 0.21575975 0.09938332
0.20709862 0.19265725 0.2332566 0.07459402 0.15753584 0.23141713 0.18935047 0.28383428
0.15056531 0.1793236 0.24824186 0.12791322 0.12076976 0.101015836 0.06944023 0.17054124
0.277094 0.21904068 0.18233879 0.1895733 0.009019807 0.03158784 0.08547813 0.09835651
-0.08405501 -0.11233474 0.111610726 0.019329846 0.014923528 0.0793345 -0.036523327 -0.08200988
0.121667564 -0.06589422 -0.116559744 0.09168595 -0.06601514 0.0076209456 0.02197361 -0.044650152
-0.11506757 -0.028074086 -0.08134529 0.06281902 -0.08564316 -0.06157419 0.10221118 0.099103376
-0.1002478 -0.07950652 -0.079449266 -0.12028241 0.033276245 -0.01878947 -0.07592778 -0.09907986
-0.042985514 0.0076153427 -0.053354293 -0.05814974 0.07522428 -0.11136486 -0.06682816 0.033326417
-0.08713564 0.10571577 -0.11429739 -0.09448674 0.035865396 0.010503098 0.04564233 -0.06451486
0.12216379 -0.023878336 -0.029238567 -0.036258027 -0.06962329 -0.065029874 0.052645415 0.0589931
-0.09248254 -0.044944003 -0.063898996 0.041716054 -0.053654462 0.06310435 -0.116606355 0.01110968
-0.12674157 -0.0836279 -0.15363829 0.1688572 0.15209009 -0.17627952 0.13926238 0.18798119
0.035308152 0.17596066 0.10978993 0.12343586 0.109128095 -0.1482807 -0.12772131 0.1270925
0.13343816 -0.18453623 0.25135556 0.15691675 0.17014661 -0.2137351 -0.19562018 0.06448065
-0.039958093 -0.073860645 -0.097487204 0.10481832 -0.08440938 0.1424996 -0.14516729 -0.07637272
0.11958471 0.0727259 -0.14377987 0.1595664 0.033837233 -0.07725743 -0.13671076 0.069474466
0.068007626 -0.105180725 0.016812125 -0.1389851 0.14052543 0.10009792 -0.13522446 -0.16715746
0.23935597 -0.08694443 -0.07656796 0.0015915368 0.009827722 -0.17310749 -0.039109424 -0.0639915
-0.04869247 0.12083614 -0.19244389 -0.17350182 0.14552672 -0.09019022 -0.030182747 0.103274934
0.20138541 0.21498913 0.13057412 0.14013861 0.24912828 0.096074805 0.18104231 0.1191493
0.25360444 0.20253976 0.16389704 0.23943134 0.110454366 0.21663028 0.08595768 0.38442075
0.113199554 0.2644673 0.20543572 0.28751263 0.28182703 0.27073172 0.1410786 0.35173538
0.2013349 0.3014643 0.24329804 0.23003139 0.27780005 0.2637415 0.23834321 0.2684123
0.2835979 0.2788815 0.13467114 0.21208365 0.21241017 0.2655265 0.27789626 0.12088987
0.12428931 0.36150753 0.112764135 0.056719422 0.33023107 0.21800356 0.16226377 0.3109075
0.29668537 0.3045986 0.30640575 0.1337804 0.31176087 0.08803106 0.29451582 0.29001153
0.10217272 0.12893538 0.2150659 0.16000673 0.15503596 0.13828821 0.22704074 0.11335495

encoder.bias_hh_l0 f4 [256]
00000000: ace6 803e 529c c53d d930 103e 9c7b 273e
00000010: debc 9b3d 7403 9a3d ddf6 4e3e 2bdd 853e
00000020: 1df9 d53d 466f 123e ef02 b33d b78f 853e
00000030: d1b8 e23d 3f07 853e 4801 803e 2636 b43e
00000040: 95c7 9b3e f39f 793e 2228 253e 1d0e 2a3e
00000050: c989 973e 5c0f 5d3e f0e6 693e deef f63d
00000060: 738c a43d ed8d 383e cc42 733e 5527 963e
00000070: e60d 643d 9879 633e 7117 dd3c 9852 613e
00000080: 4263 cc3d 2aff 153e b0af 893d 1687 863e
00000090: 12d3 523e b738 8e3e b1b8 083e 41f9 693e
000000a0: 7b9d 193e c517 a23e 59a4 803e 60c8 693e
000000b0: d8e0 8e3e fb2d 383e 191a ad3d ad07 883d
000000c0: 7ea1 b43d d7f9 3e3e 1ac1 b63d 6680 a83e
000000d0: 95bc bb3d 1b6f 5b3e 8e77 963d 2246 ff3d
000000e0: 8134 253e 3116 8a3e a676 153e a725 6b3d
000000f0: 74a5 1a3e d654 d23d 2c32 1e3e 81a9 5d3e
00000100: 0e24 f23d d8da 0fbd c098 b83d ce98 fcbd
00000110: 12f6 a93d 10a9 e2bd 8067 f4ba 989c 913d
00000120: ca48 94bd 70e0 113d ecbc b1bd 8493 203d
00000130: 4619 80bd 80f1 7bbc 2090 f9bb 30fb 7fbd
00000140: 1864 493d c2e9 ccbd 50a7 37bc 7039 6dbd
00000150: 40cf f23b 0046 fd39 74c5 9fbd c059 9dbc
00000160: 421f fdbd 34a8 abbd 28ea 7e3d 7cdd 403d
00000170: 9c23 2c3d e09d 6fbc d0e0 523d a846 5f3d
00000180: d6ae d4bd c0fb ef3b 7092 afbc e824 3b3d
00000190: fc7d 4dbd 4099 4c3b a0ff 853d 1c9d 1d3d
000001a0: 92fb f6bd ca95 ed3d bcfa d43d e8db ccbc
000001b0: b0b1 44bc f82a 9b3c 12f0 b6bd 9c02 a13d
000001c0: c265 acbd 6030 a13c e882 7c3d 34ef f0bd
000001d0: 0878 393d 3c40 adbd c84b 823d 343f a63d
000001e0: ea59 cebd cc04 dfbd ee34 84bd 32b4 da3d
000001f0: ca8d d4bd 00f1 a1bd 6c31 ecbd 6e8f d63d
00000200: 7804 3e3d 580d 04be 591b 84bc d1f5 ef3d
00000210: ae0f aebd 2850 873b 30b9 0a3e d6c8 773e
00000220: e4c5 2d3e ae45 193e 2213 3d3d c315 1cbd
00000230: 3c70 6b3d 6974 81bc 0c39 52be ef84 a1bd
00000240: 270a 363e 21d4 59bc aa6e 013d a742 123e
00000250: 4b8c 843d bdb9 cbbd d10d 9f3b 9626 82bd
00000260: 6622 fcbc 7e42 31be b21f e0bd e559 ee3d
00000270: 79d3 0bbe ae0e f93b 8477 48be b6e9 eb3d
00000280: fb29 933d 5ba4 9ebb ff2b 0a3c 6eda 173e
00000290: b77c 37bd 8cff cdbc 3c32 dc3c 4fcd ed3d
000002a0: 3c55 2c3e d6c2 e1bd df0f cfbc 6ac3 22be
000002b0: 4d86 0fbc 84b8 66bd db6d f8bd 7ea8 46be
000002c0: 6d41 033e 537c 603d af11 66be a654 2bbe
000002d0: a6d9 16be 6417 a0bd db03 1fbe a1a9 623c
000002e0: d705 d9bd da52 2f3e 7a05 93bc 4a66 1abe
000002f0: 2602 90bc a6a1 ac3d cd0f 863a 31c6 093e
00000300: c8fe 713e fade 6b3e 7902 6a3e 51f2 873d
00000310: 416a c63d ae39 833e b092 d53e 4e6c 363e
00000320: 7647 213d 7f57 7e3e 1ec3 993e c56c 543e
00000330: 4117 283d b9f1 9c3e 3cc4 9e3d 2d1d 2a3e
00000340: 8f7b 913e ef65 223e d412 df3d 6450 0f3e
00000350: 0c3e 8f3e 2e8f 7f3e 7a48 bf3d a6f0 6f3e
00000360: 91be 683d fd13 983e eb18 8a3e d652 903e
00000370: 813e 283e 79e5 803d 2483 0c3e 7dcb 9b3e
00000380: 960b 933e 9117 933e ce92 973e 39e9 843e
00000390: e13d 6e3e 8ff0 0a3e 33ef 713e 1b2e 213e
000003a0: f1c8 523e a11e 903e 1ee8 883e a2b9 1d3e
000003b0: bcb6 a73e 3f10 973e 6376 023e 199d 413e
000003c0: a7e2 6f3e 8f5f 9b3e 7e12 2d3e e1c4 623e
000003d0: dbc3 9c3e 6acb c93d 1730 683e b70b 313e
000003e0: ace7 4f3e 7579 5f3e 2082 ba3d a40f 4f3d
000003f0: 327e 863e 8b89 913d b02c 4a3e 3a3c 733e
0.2517599 0.09648956 0.14081134 0.16355747 0.07604383 0.0752019 0.20211358 0.261453
0.10447905 0.1430026 0.08740794 0.26086208 0.11070407 0.2598209 0.25000978 0.35197562
0.30425707 0.24377422 0.1612859 0.16606946 0.2959731 0.2158789 0.22842002 0.1205747
0.08034601 0.1802289 0.2375595 0.29326883 0.055677317 0.22214353 0.026988717 0.22004163
0.099798694 0.14648119 0.06722963 0.26274937 0.2058833 0.27777645 0.13351704 0.22848989
0.1500148 0.3165876 0.25125387 0.22830343 0.27905917 0.1798629 0.08452243 0.06642089
0.08819865 0.18649994 0.0892355 0.3291046 0.091668285 0.21429102 0.07347022 0.12464549
0.1613331 0.26970056 0.14596042 0.057408955 0.15102178 0.102700874 0.15448827 0.21646692
0.11823283 -0.035120815 0.0901351 -0.12333833 0.08298887 -0.11067402 -0.0018646568 0.07109946
-0.07240446 0.03561443 -0.08678612 0.039203182 -0.062548205 -0.015377402 -0.007616058 -0.06249541
0.049167722 -0.10005523 -0.011209324 -0.057916105 0.00740996 0.00048308074 -0.07801333 -0.019207835
-0.123594776 -0.083816916 0.062235028 0.047086224 0.042026147 -0.014625043 0.05148393 0.054510742
-0.1038491 0.007323712 -0.021432132 0.045689493 -0.050168976 0.0031219274 0.06542897 0.03847991
-0.12059702 0.116008356 0.10399386 -0.025007203 -0.012005255 0.018941388 -0.089325085 0.07861826
-0.08417846 0.019676387 0.06164828 -0.117643744 0.045280486 -0.08459517 0.063621104 0.08117524
-0.100757435 -0.10889587 -0.06455408 0.10678901 -0.103786066 -0.07907295 -0.11532864 0.10476576
0.04639098 -0.12895715 -0.016126322 0.11716808 -0.084990844 0.0041294284 0.13547206 0.24197707
0.1697002 0.14967987 0.046160825 -0.03810669 0.057480082 -0.015802579 -0.20529574 -0.07886683
0.1777731 -0.013295204 0.031599678 0.14283238 0.06472071 -0.09947536 0.004853942 -0.06355016
-0.030778121 -0.17310521 -0.109435454 0.1163824 -0.13654889 0.007600627 -0.19576842 0.11519186
0.071857415 -0.00484137 0.008433341 0.14829418 -0.04479667 -0.025146268 0.026879422 0.11611425
0.1682939 -0.1102349 -0.025276123 -0.15894857 -0.008760047 -0.05632831 -0.12130328 -0.19400212
0.12817927 0.054806065 -0.22467683 -0.1673151 -0.14731464 -0.078169614 -0.15528814 0.013834388
-0.10596817 0.17121449 -0.017946947 -0.15078083 -0.01757915 0.084292695 0.0010228098 0.1345451
0.23632348 0.23034278 0.22852506 0.06638015 0.09688235 0.25629944 0.41713476 0.17814752
0.03937479 0.24838065 0.30031675 0.20744617 0.0410378 0.3065317 0.077522725 0.16612692
0.2841458 0.15859197 0.10892263 0.1399551 0.27977026 0.24956962 0.09339996 0.23431644
0.056822363 0.2970275 0.26972136 0.281882 0.16430093 0.062937684 0.13721901 0.30428687
0.28719777 0.28728917 0.2960419 0.25959185 0.23265792 0.13568328 0.23626404 0.15740244
0.20584466 0.28148368 0.2673959 0.15402845 0.32756603 0.29504582 0.12740473 0.18907584
0.23426305 0.30346343 0.16901585 0.22145416 0.30618176 0.09853251 0.22674595 0.17289625
0.2030322 0.21823676 0.091068506 0.050552025 0.26268154 0.07106312 0.1974361 0.23753443

decoder.weight_ih_l0 f4 [256, 64]
00000000: 551f 5cbe f72d 52be 870a 15be 1529 9a3e
00000010: 88a9 733d b931 7dbd 18d3 e23e 1de7 623e
00000020: 9d7f 393e c5ec e03d bb44 013e c794 633a
00000030: 3470 6f3d b07b 76bc 4a61 0ebe aba5 4a3e
00000040: e4fe 22be 2067 a9bd bf94 373e 46cf 3b3c
00000050: ed77 043e da04 19bc a9d5 15bc 2192 99bc
00000060: 5a37 92bd ae81 9a3d cf36 67be ea39 5f3c
00000070: 6852 89bd f7e5 243e 7564 8fbe d4d7 13bd
00000080: 995a 963c 080f d53d 2961 51be 952d ca3c
00000090: 343f 88be d7f8 5dbd c42c af3d 432a 093e
000000a0: dbfc ce3d 14b6 99be 427b 1abd f974 793a
000000b0: cb8b 063d a73b f13d bd01 f6bc 3828 283a
000000c0: 394f 313e a293 663d aea1 84be b539 4bbd
000000d0: 5ffe 6dbe 2c7f 39be fb21 60be 56f8 3abe
000000e0: 877c 593c 453c 1cbe 68cd 653b e679 04be
000000f0: 407b a03d 3254 abbd 4a19 30be 80b0 943e
00000100: aa3a e4bd 06ce 84bd 6f8d 08be 87c1 92bd
00000110: e626 e33d f77a ebbd d9e3 563d 7309 563e
00000120: aefb 163d dd25 223e ec18 3d3e 39a2 943e
00000130: 482e 563e 5d02 99bd 7d60 0abe ad15 ccbd
00000140: 5d6b c63c 4acf 2bbe 721b 8a3e a811 e93d
00000150: 4336 183e cc22 0bbe 2762 25be 14dc 8a3e
00000160: 3ac9 7ebe 8619 73be 0bf9 6cbe 4ce5 da3d
00000170: 3aeb 77be 9f2e 613d 74a0 2dbe 03c9 90bd
00000180: 7cad 4d3e 2d34 833e ce75 b6be 213a d83d
00000190: 8302 0abe d81d b8bd 4d86 70bd 3462 043e
000001a0: 6a9e 603d 0893 3cbd e460 413e f3d7 2cbe
000001b0: 12d0 2cbd 7cc9 253e cb70 53bd 3fa9 4dbe
000001c0: c807 8f3e 3570 fabb cbcb 77be 867d acbe
000001d0: 10e4 82be 6734 36be f0b3 a3be 5b4c c8bd
000001e0: 4ee3 7ebe be50 823e 4b9a 26be 21e2 99be
000001f0: 6a5d 1f3d ac52 3cbe 4029 3abe 57af 043e
00000200: f18a 9bbe 22c3 e6bd ef75 44be 13b8 a23e
00000210: 91ff 603e 8eca c0be d4f6 273e 2215 653e
00000220: ee2c 573e ae09 913e 551e a83e ce72 9e3d
00000230: bf82 f53d dae9 bebe 2d35 cfb9 8b02 873e
00000240: e2b2 563e a778 87be ccc7 a43e f001 1c3e
00000250: fde3 7e3e bf32 b9be ca05 c1be bdae 7f3e
00000260: f5a1 e2bd 6bfc b43d cfd7 93be 8b24 ab3e
00000270: 9bfe adbe bcfb 533e 0361 2bbe 1f06 993e
00000280: 41c5 383c 2fe6 a13e 35e8 2ebc 9758 b83e
00000290: 4764 8dbe 9b1f 59be 4212 79be f581 b43e
000002a0: 1021 ff3d 80f4 b0be 2f50 5d3e 0eb1 91be
000002b0: a4d7 1e3e 7bdd 893e 9bb2 69be 433e b9be
000002c0: 3ab9 b33e 6337 a83e 96b7 06be e4c2 34be
000002d0: e376 9cbe b2a5 8bbe 2e45 84be 3ce0 14be
000002e0: 6ca6 89be c03f e23e 1cae 78be ea17 bdbe
000002f0: a599 0d3e dfbd 92be 49d4 b3be 9008 c73d
00000300: bbe2 a6bd 0992 3dbd 0916 40be a198 f53c
00000310: 3aab 5d3e 765e 3ebe 36a5 003d 62f8 553d
00000320: f4d1 a93d 7290 923c c219 163e 0185 f93d
00000330: 0f9a c73d 3343 0ebd 7e84 ab3d 4b84 fdbd
00000340: 4bba 05bd 0f83 45be 9d16 6c3e 9650 3b3e
00000350: 9e39 ad3d 5ed0 96be 2895 eabc 8c14 98bd
00000360: 36a1 72bd a13c 60be 93b8 c43d 967a bb3d
00000370: 7dda 67bd 2986 2d3e de53 6dbe e00e 353e
00000380: 60e7 8c3d 8371 863d dbb1 81be f97b 2d3e
00000390: 9f19 5d3d c9bb 9abd f5a7 d5bd e035 de3d
000003a0: d625 543e acfc 6bbe 6253 a43d 8b20 6cbd
000003b0: 6a1d 7c3e 9d5e a83e 7111 30be ac10 7fbe
000003c0: 30d2 713e 9014 723e 3b68 44be 36e1 863d
000003d0: 52be 56be fbda 25be 566d c7bd 5fa2 6cbe
000003e0: 55ee abbd e6a4 8b3e c656 203d 6897 4ebe
000003f0: 552f c03c 9c5b 8fbe d247 2cbe 0635 163e
-0.21496327 -0.20525347 -0.14554797 0.30109468 0.05948785 -0.061814997 0.44301677 0.22158475
0.18115087 0.1098266 0.12623875 0.00086815323 0.058456615 -0.015044138 -0.139043 0.1978976
-0.15917546 -0.08271623 0.17927836 0.011462992 0.12936373 -0.009339536 -0.009145179 -0.018746438
-0.07139464 0.07544266 -0.22579502 0.013624648 -0.06705171 0.1610335 -0.2800633 -0.0360945
0.018353747 0.104032576 -0.2044722 0.024679938 -0.2661072 -0.05419239 0.0855346 0.13395028
0.10106822 -0.30021727 -0.037715204 0.00095160265 0.03284816 0.11778956 -0.030030126 0.00064146845
0.17315377 0.056293137 -0.25904602 -0.04961558 -0.23241566 -0.18114918 -0.21887963 -0.18258795
0.013274319 -0.15257366 0.0035065059 -0.12937126 0.07836008 -0.08365668 -0.17197147 0.2904091
-0.11144002 -0.06484608 -0.13335203 -0.07165819 0.11091404 -0.11498063 0.052463386 0.20902042
0.036861114 0.15834756 0.18466538 0.29030016 0.20916092 -0.07471154 -0.1351337 -0.09965072
0.024221117 -0.16778293 0.26974064 0.11380321 0.14864449 -0.13587493 -0.16150723 0.2712103
-0.2488145 -0.23740205 -0.23141877 0.10688266 -0.24210826 0.054976102 -0.1695574 -0.0706959
0.2008571 0.25625744 -0.35636753 0.10557962 -0.1347752 -0.08990067 -0.05872183 0.12928087
0.054838575 -0.046038657 0.18884617 -0.16879253 -0.04219062 0.16190141 -0.05162124 -0.20084094
0.27935624 -0.0076427707 -0.24198835 -0.33689517 -0.25564623 -0.17793427 -0.3197322 -0.09780189
-0.24891397 0.25452226 -0.16269796 -0.30055335 0.038907446 -0.18390912 -0.18179798 0.12957512
-0.3037944 -0.112676874 -0.19185613 0.31781062 0.21972491 -0.37654537 0.16402751 0.22371343
0.21013233 0.28327698 0.32835642 0.07736741 0.119878285 -0.3728779 -0.00039521736 0.26369128
0.20966676 -0.26459238 0.32183683 0.15235114 0.24891658 -0.3617153 -0.3769973 0.24969001
-0.11066047 0.088372074 -0.28875586 0.33426318 -0.3398331 0.20701498 -0.16736226 0.29887483
0.011277498 0.3162093 -0.01067548 0.3600509 -0.27615568 -0.21203463 -0.24323371 0.352554
0.12457478 -0.3456154 0.21612619 -0.28455395 0.15511948 0.2692679 -0.22822039 -0.36180314
0.35102254 0.32854757 -0.1315597 -0.1765247 -0.30559453 -0.27274853 -0.2583403 -0.14538664
-0.26884782 0.44189262 -0.24285167 -0.36932307 0.13828142 -0.28660485 -0.35122898 0.0971843
-0.08148714 -0.046281848 -0.18758406 0.029980006 0.21647349 -0.18590721 0.031407557 0.05223883
0.082919985 0.017891143 0.14658263 0.121835716 0.09746181 -0.034732055 0.0837488 -0.123787485
-0.032648366 -0.19288276 0.23055501 0.1829246 0.08458255 -0.29455847 -0.028635576 -0.07425794
-0.059235774 -0.21898128 0.09605517 0.09154241 -0.05660485 0.1694571 -0.23176524 0.17681456
0.06880069 0.065646194 -0.25331005 0.16941823 0.053979512 -0.075553484 -0.10432426 0.108501196
0.20717558 -0.23045605 0.080237165 -0.057648223 0.24620596 0.32884684 -0.17194153 -0.24908704
0.23615336 0.23640656 -0.19180386 0.06585924 -0.20971039 -0.16196816 -0.09737651 -0.23108815
-0.083950676 0.27274245 0.039145254 -0.20174944 0.02346007 -0.2799958 -0.16824272 0.14668664

decoder.weight_hh_l0 f4 [256, 64]
00000000: f0a2 bb3d f0ff acbd f030 253d ec76 9b3d
00000010: 0e1b c53d 16d1 85bd b83b 933d f077 6b3d
00000020: eca7 05bd 6cd9 383d bc24 bebd b038 a7bc
00000030: e4d7 9f3d 9866 febd 4077 8cbb e275 fa3d
00000040: 0871 fe3c d46d a23d 0c6f 02bd 0489 99bd
00000050: 8685 82bd d0af 003d e4ba ee3d b8ae bc3c
00000060: a6e2 a43d 7861 4dbd 0aff e7bd ec3f fbbd
00000070: a48d debd 1c63 c33d 9adf a03d 96a4 e1bd
00000080: 30c4 c0bd 74e5 72bd 2067 51bc 000b cbba
00000090: e2b8 a33d 2832 cabc 5e6c f1bd 381a 87bc
000000a0: 786e 173d 9009 65bd 0012 63bd c804 9bbc
000000b0: 1868 96bc 0ce3 02bd 4a5b ef3d 8c9a c73d
000000c0: e81a bcbd 163b f2bd 9289 c83d f022 7c3d
000000d0: 1010 143d 6c87 6dbd 0ed9 8abd c2cb f3bd
000000e0: 14e5 6d3d c0a0 533c ac19 063d 20f0 6c3c
000000f0: 80a2 173b ec41 823d 489d b83c a2ef fe3d
00000100: 44a3 9ebd 9a1f 963d a2fb 8bbd 1011 843c
00000110: 74f4 f0bd 78f8 e53c fc45 49bd 80f3 88bb
00000120: f476 3c3d 140f fd3d 40ec 33bb 107d c63c
00000130: ceed 9e3d 62e7 bd3d 444a 6e3d b031 c33c
00000140: 8832 e6bd fcde 50bd 7ab4 cbbd 187c ed3d
00000150: b081 c83c c229 8b3d 30f7 d63c 4697 a6bd
00000160: f80e 963c 34f0 11bd d0c5 b0bc 1869 ed3c
00000170: c0fe 63bd 98d0 16bd e0e6 ebbb 1020 88bd
00000180: d468 76bd c089 a5bb 1abf fdbd dc53 b03d
00000190: 6ec4 83bd 80b0 aa3d be17 9bbd ca47 efbd
000001a0: ceca fd3d 90fa 5cbd e4c4 e1bd 5e9f e3bd
000001b0: 7080 5abd f2dd f1bd 706b 423c 084f 45bd
000001c0: 402e a13c 90fa 1bbc e6c9 993d ca55 8e3d
000001d0: c80a 62bd 9042 0a3c 8880 b5bc 50de cf3d
000001e0: 3806 d9bc 96cd cebd 4815 c73d e687 f83d
000001f0: 2007 023d 10e4 2e3c 5e8c d33d c025 ee3c
00000200: 3002 0f3d 908a 12bd 7800 fdbc dc64 5e3d
00000210: 9468 a13d 467e c03d 581b 80bc 4089 bdbd
00000220: b0e0 403d 6240 96bd c8d6 cd3d 724d b1bd
00000230: 401f 33bd dc4a 75bd 3248 853d fcbb 95bd
00000240: fc7f 013d 68af b23c dcb3 a8bd 3e95 9a3d
00000250: 0cb1 9d3d 4c70 953d 3258 9c3d 48ae fcbc
00000260: f024 e7bd 4efb e03d 18d3 9fbc 88af cabc
00000270: b4b1 df3d fc7f 073d 6a8d bb3d 0cf5 dabd
00000280: aca7 713d dc42 aabd a44e 65bd 309c 09bd
00000290: 901e ccbd 7aee 943d 6c11 943d bc2c d23d
000002a0: 10db 40bd 0e43 e8bd 042a 4f3d 1019 14bd
000002b0: 5ade dd3d 541c 29bd 2837 93bd d8db 17bd
000002c0: 3099 8dbc cc28 1f3d 4811 ba3d 0011 ccba
000002d0: 60ea 8a3c 8045 693b 1e57 bfbd 48f9 393d
000002e0: 5cc9 48bd 02cc c0bd 245f 57bd e8c4 c8bd
000002f0: 3076 893d 50f2 b23d c4b0 a5bd e418 e03d
00000300: fc20 7fbd 0cff ec3d 146d 2bbd b023 483d
00000310: c47a a9bd 848b 403d 724e c53d c088 cf3b
00000320: ccc9 903d 0078 1fbd 6c3e 533d 7471 fd3d
00000330: ac8e 3dbd a48a 87bd 8012 eebd 007e f93d
00000340: c092 7c3b 2e00 923d 784b cb3d 102b e6bc
00000350: c6fa db3d 80a5 ebbc 64d1 70bd d0a0 81bd
00000360: 00cb 803d 8280 f03d 4c77 0c3d e0da 97bd
00000370: b608 c83d 1021 543c 98f2 163d f276 e73d
00000380: d405 3fbd b0bc f93c 269c e1bd 3a3d 83bd
00000390: 9479 8cbd f8ba 4ebd 08a0 863d 1034 fabc
000003a0: c8ce 0b3d 106a f4bd 40f1 20bb a40c f83d
000003b0: 06df ad3d 1824 3abd 325d ef3d aa43 de3d
000003c0: 3a3f ee3d 80ae da3d e075 743c eca0 983d
000003d0: 3cca 373d f611 993d 986c bd3d 2898 b03c
000003e0: 60d8 9a3b 2424 a5bd 8070 a6bb 6e46 b23d
000003f0: 80df 553b aec2 953d 9276 de3d 103b 713d
0.09161937 -0.08447254 0.040329874 0.07591042 0.09624301 -0.065340206 0.07189125 0.05748743
-0.032630846 0.045129225 -0.0928435 -0.020412773 0.0780485 -0.12421912 -0.0042866766 0.122295156
0.031059757 0.07931104 -0.031844184 -0.07496837 -0.06373124 0.031417668 0.1165674 0.023032531
0.08051042 -0.05014178 -0.11327942 -0.122680515 -0.108668596 0.09540388 0.078551486 -0.110177204
-0.0941242 -0.059300855 -0.012780935 -0.0015490949 0.07994248 -0.02468212 -0.117882475 -0.016491994
0.036970586 -0.055917323 -0.055437088 -0.018923178 -0.018360183 -0.03195481 0.11687334 0.09746274
-0.091848195 -0.11827676 0.097918645 0.061556756 0.03614813 -0.057990476 -0.06779681 -0.11904098
0.058079794 0.012916744 0.032739326 0.014461547 0.002313763 0.0636023 0.022535935 0.1244805
-0.07745984 0.07330246 -0.068351045 0.016121417 -0.11765376 0.02807258 -0.049139008 -0.004179418
0.04601188 0.123563915 -0.0027454048 0.024229556 0.077602014 0.092726484 0.058176294 0.023827404
-0.11240107 -0.050993904 -0.099465325 0.11595935 0.024475902 0.06795074 0.026240915 -0.08134322
0.018317685 -0.035629466 -0.0215787 0.028980777 -0.05566287 -0.036820024 -0.0071991533 -0.066467404
-0.060158566 -0.0050518215 -0.12389965 0.08609745 -0.0643395 0.08334446 -0.07572888 -0.116836146
0.123921975 -0.053949893 -0.11023882 -0.11114381 -0.053345144 -0.11809911 0.011866435 -0.048171073
0.019675374 -0.009520188 0.07509212 0.06949957 -0.055186063 0.008438721 -0.022156015 0.101498246
-0.026492223 -0.10097806 0.09720856 0.121352956 0.031745076 0.0106744915 0.10329507 0.029070735
0.034914196 -0.035776675 -0.030884013 0.054295406 0.07881275 0.09399085 -0.015638039 -0.09254694
0.04708928 -0.07336499 0.10050732 -0.0865735 -0.043730974 -0.059885845 0.06507911 -0.07311246
0.031616196 0.021812156 -0.082374305 0.07547997 0.07699785 0.072968096 0.076340094 -0.030844823
-0.11286342 0.109854326 -0.019509837 -0.024741903 0.10922566 0.03308104 0.09157832 -0.1069127
0.058997795 -0.08313534 -0.0559832 -0.033596218 -0.09966767 0.07272048 0.072298855 0.10262439
-0.047083914 -0.11340915 0.05057718 -0.036156714 0.10833426 -0.04128678 -0.071882546 -0.037074894
-0.01728496 0.038857266 0.090853274 -0.0015569031 0.016957462 0.0035594404 -0.09342788 0.04540375
-0.049020156 -0.094139114 -0.052580968 -0.09803182 0.067119956 0.08737624 -0.08090356 0.109422475
-0.062287316 0.11572084 -0.041852072 0.04886216 -0.08275369 0.047008052 0.09634103 0.0063334405
0.0706974 -0.0389328 0.051573202 0.12375155 -0.04627864 -0.066182405 -0.11624622 0.12182236
0.0038539618 0.071289405 0.09926504 -0.028096706 0.107411906 -0.02876544 -0.05879344 -0.06329501
0.06288719 0.11743261 0.034293458 -0.07414794 0.097672865 0.012947336 0.03685245 0.11301984
-0.046636418 0.030485481 -0.11016111 -0.064081624 -0.06859127 -0.050471276 0.06573492 -0.030542403
0.03413275 -0.11934292 -0.0024557859 0.12111786 0.08489804 -0.045444578 0.116876975 0.1085275
0.11633153 0.106778145 0.014920682 0.074525684 0.0448706 0.07474129 0.09249228 0.021556929
0.004725501 -0.08063534 -0.005079329 0.0870484 0.0032634437 0.07312523 0.10862459 0.058894217

decoder.bias_ih_l0 f4 [256]
00000000: 147a 733e dd40 433e adc4 253e 8810 2b3a
00000010: 068c 3f3e db49 1d3e c8dd 5d3e eedb 643e
00000020: 21ad 903e 9372 8a3e 6669 d63c e1e0 f83d
00000030: ca5c a43d 3040 6b3e d067 a23d 9cb8 973e
00000040: 00af 913e 563b dc3d b097 b03c 97d0 913d
00000050: 2b37 bc3d 6446 383e ed26 8b3e 0de6 d13d
00000060: 101a b83d 7f6a 363e 27d2 553e 7ef2 5a3e
00000070: c534 ce3d 6d72 243e d2d8 e43d 5d06 0f3e
00000080: bbbe 8f3d 5007 0c3e 3594 4b3d 1880 903d
00000090: ea05 ab3e 0089 4a3d a049 b2bd 4c7b 273e
000000a0: d026 bb3d 2d0e 2b3e 4802 2ebd d270 b83d
000000b0: aaec 1c3e 492f 0e3e a63b 7b3e 4ad4 c23d
000000c0: a5c9 973e 4fa7 a93e c407 1d3e 19a8 083e
000000d0: efa5 193e df23 493e 20ce 583e bedc 393e
000000e0: d4ae f93d d767 033e 3b9a 933e c5e9 243e
000000f0: de5a bd3d babf a53d 139b c63d fcb4 003e
00000100: c0fb 9a3d 7ced 86bd 0446 44bd b0fe 78bd
00000110: bc55 eb3d c2c0 eebd 88bb 79bd b222 febd
00000120: c459 64bd 6a95 e2bd 9030 723c 9a39 e53d
00000130: a8f0 55bd 3cf3 a9bd b66f 97bd 067f eebd
00000140: 0085 283b 94df fb3d 6888 bcbc d8a0 983d
00000150: 00b4 71bc a2b4 b73d 0654 df3d 2a61 9ebd
00000160: bec5 a33d d29b 99bd 2885 47bd 8899 46bd
00000170: 7cc7 853d f077 cd3d 9c94 eebd d4e4 4f3d
00000180: 0051 87bc 2034 f2bb d066 803c 2244 88bd
00000190: 921b fb3d 44a8 123d c850 a7bd 4c25 38bd
000001a0: 1417 c8bd 5495 c53d 2aca cb3d f0c2 01bc
000001b0: 3e4f 903d a0b0 cfbd c014 873b 001c 0ab9
000001c0: d0e7 e13c 6c1a a63d 401c b8bd d426 d7bd
000001d0: 3cf4 343d 147e f2bd c0d3 0f3c 78ba a4bd
000001e0: e0a3 c03d b632 a8bd 5801 143d ac76 9abd
000001f0: 2817 f0bd 6296 9e3d a073 213c fcb2 b5bd
00000200: feaf 433b 6ade 32bc ebb9 a23c 5242 91bc
00000210: e736 d1bd 8a36 d6bd a449 a9bd 8779 e93d
00000220: 1f16 ee3b 6234 19be ed0b 8b3d f14f e23d
00000230: afbb e3bd 9511 9a3d e3d7 4c3d c0f0 2ebd
00000240: 9c0a cd3c f1fa 033c bb1f 473d f187 3bbd
00000250: 84e0 9dbd 0004 ab3d 46c4 07be 5526 aebd
00000260: 8ae5 36be 3f6a de3b 3b7b a039 c71a 27bd
00000270: c5ca dbbd 887f 97bd 2708 05bd 9a8a b73c
00000280: aa3b bf3d 9b43 343e 1064 e53d 2b49 00be
00000290: 7d0e 26bd 6ac3 543d f709 113d 3a6e 783d
000002a0: 6ade 303d 28ff b3bd 9147 dcbd 38b7 5bbd
000002b0: ceeb 93bd 5272 f23d 44db 0cbd 10f8 3bbd
000002c0: 3030 64bc 12c3 443d 9459 c3bd 4598 523d
000002d0: 7efb 49bd c5c9 753c 019d d6bd 2415 77bd
000002e0: 4133 dd3d 2f49 0c3e 1f03 0dbd 3c04 0abe
000002f0: e172 eb3d f55b 133e 69d9 9fbb 14f6 c1bc
00000300: 71f4 3e3e 81f9 7f3e e125 2c3e 923b 193e
00000310: 6a41 693e 1792 953e bf2b e53d 09ff ed3d
00000320: bc13 873e 2f21 573e d321 c33c 71cb a13e
00000330: 04fe 1a3e 79c7 1a3e 3961 413e 5827 9f3e
00000340: 877e 9b3e a1cd 563e 70d5 dd3d bb2b 7d3d
00000350: e744 563e 0982 d33d e811 903e 33b2 a13d
00000360: e346 923e d5c8 583e b19c 9e3e 0d1c 3a3e
00000370: 705c 493e 3b27 5b3e 9b3a a13e e4b4 8d3e
00000380: 65ae 523e 9fd9 cb3d 63ff 943c 379b 923e
00000390: 2bc0 4d3e 50f8 533d 3e81 5d3d c7fa 8f3e
000003a0: e6be 0c3e 6850 663e 1a43 73bd a3c5 783e
000003b0: 4e51 443e 6499 b63d 2d42 883e 393e a93e
000003c0: 9a41 2c3e 71e1 9b3e 0d12 ee3c 0866 d93c
000003d0: 3366 433e 87a6 723e c3ce 9b3e 3875 9d3d
000003e0: 1e5d 933d 8e83 073e b3fe 453e ba1d 633e
000003f0: 0fc9 31bb 9a16 5a3e 610e c23d adb9 683e
0.23777038 0.19067712 0.16188307 0.00065255957 0.18705758 0.15360205 0.21666634 0.22349522
0.28257087 0.27040538 0.026173305 0.12152267 0.080255106 0.22973704 0.07929957 0.29633033
0.28453827 0.10753505 0.021556705 0.071198635 0.0919021 0.17995602 0.27178136 0.10248957
0.08989346 0.17814063 0.20880948 0.21381566 0.10068659 0.16059275 0.11174168 0.13967271
0.07018801 0.13674664 0.049701888 0.07055682 0.3340295 0.04944706 -0.08705449 0.16355628
0.09138262 0.16704626 -0.042482644 0.09005894 0.15324655 0.13885225 0.24534473 0.09513147
0.2964603 0.3313546 0.15334994 0.13345374 0.15004705 0.1964259 0.2117238 0.18150613
0.12191549 0.1283258 0.28828606 0.16104801 0.09245847 0.080932096 0.09697547 0.1256904
0.07567549 -0.06588265 -0.047918335 -0.060789764 0.11490962 -0.116578594 -0.06096986 -0.12408961
-0.05574967 -0.11063655 0.014782086 0.11192627 -0.05223146 -0.082983464 -0.07394354 -0.116453215
0.002571404 0.122985035 -0.023014262 0.074525535 -0.014752388 0.0897 0.10904698 -0.07733376
0.07996701 -0.075004235 -0.048710972 -0.048486263 0.06532189 0.10032642 -0.11649439 0.050755337
-0.016518116 -0.0073914677 0.015674025 -0.0665362 0.12261118 0.035805 -0.08169705 -0.044957444
-0.09770027 0.09647623 0.09950669 -0.007920012 0.07046364 -0.101411104 0.0041223466 -0.00013171136
0.027576357 0.08110508 -0.08989763 -0.10505453 0.044178233 -0.11840454 0.0087785125 -0.080433786
0.09406257 -0.08212797 0.036134094 -0.07542166 -0.11723167 0.07743527 0.009854227 -0.08872029
0.0029859538 -0.010917285 0.019864043 -0.01773182 -0.1021555 -0.10459621 -0.08265999 0.114001326
0.0072658206 -0.14961389 0.06789384 0.11050404 -0.11119782 0.07522885 0.050010573 -0.042710066
0.025029473 0.008055435 0.048614245 -0.04578394 -0.077088386 0.08350372 -0.13258466 -0.08503405
-0.17861 0.006787568 0.00030609392 -0.04079702 -0.107320346 -0.073973715 -0.032478478 0.022404958
0.09337552 0.17603914 0.11200726 -0.12527911 -0.04054116 0.051944174 0.035409894 0.060651995
0.04318086 -0.087889016 -0.10755838 -0.053641528 -0.072227105 0.11838211 -0.034388795 -0.045890868
-0.013927504 0.048037596 -0.0953857 0.051414747 -0.049312107 0.015001719 -0.10479165 -0.060322896
0.108007915 0.13699792 -0.034426805 -0.13478178 0.11496521 0.14390548 -0.004878212 -0.02367691
0.18647934 0.24997522 0.16811325 0.1496413 0.2277886 0.2921302 0.111899845 0.1162091
0.26382244 0.21008752 0.02381984 0.31600526 0.15135962 0.15115155 0.18884744 0.31084704
0.3036997 0.20976879 0.108317256 0.061809283 0.20924722 0.103275366 0.2813866 0.07895317
0.28569707 0.21170361 0.3097892 0.18174763 0.19664168 0.21401684 0.31490025 0.2767707
0.20574339 0.09953617 0.018188184 0.28634045 0.20092838 0.05175048 0.054078333 0.28121015
0.13744697 0.2249161 -0.059390165 0.24294142 0.1917164 0.08915976 0.26612988 0.33055285
0.168219 0.30445436 0.029061342 0.02653791 0.19081955 0.23696338 0.30431184 0.07688373
0.07195495 0.13233778 0.19335441 0.22179309 -0.0027127897 0.21297684 0.09475399 0.2272708

decoder.bias_hh_l0 f4 [256]
00000000: 69dc 663e 7f7c e83d cf7a f63d 77c7 633e
00000010: 7ed9 b23d 5785 8a3e e37f 373e bc1e 923e
00000020: 5610 3d3e f8cb c03d e4fe b23d 70f7 683e
00000030: c7e2 7e3c ecfd ae3d 0003 0f3e b094 943e
00000040: 492d 403e 6ea0 393e 54ed 933b bba9 4e3d
00000050: 7b9e ec3d 37a7 883e 4ceb c13d 0421 163e
00000060: cda7 073e 15b0 0e3e 28f8 3c3e ee0a b63c
00000070: d448 3ebd 5be4 463e f900 3c3e df03 b63d
00000080: a7ba 2f3e a62c 153e be5f 953d 67fc 133e
00000090: 833c cd3d 0ab7 4f3d 3cac b23d ab4d 9b3e
000000a0: 0402 4c3e f73e 283e 877e 0fbc 875f 683e
000000b0: cfa2 cc3d d647 383e e37a a73e ca9f 0b3e
000000c0: eb63 703e 2c7b b33e e438 233e 11d1 2d3e
000000d0: 39ae 5d3e 937c 583e f625 603e 0f06 fa3d
000000e0: f309 ff3d 0699 713e 13de 8e3e 7e2d 353e
000000f0: e78f 073d 5aaa f23d 60dd 3f3d 4f8c 003e
00000100: 909a 97bc 501a 0d3d 4075 3e3d f8df 80bc
00000110: 6459 f73d 4043 c0bc c415 7d3d b0d2 20bc
00000120: 9a47 febd d4c7 94bd 24b9 433d 1849 b13d
00000130: 36f6 e33d 3cee bcbd c04d eebd 868c 933d
00000140: 0ef2 87bd 0c27 61bd 1608 b2bd b6d2 a23d
00000150: b643 87bd 28fd c0bc 3a3b bc3d 187d a23d
00000160: 3433 45bd 1c89 9ebd b6db e63d d643 a0bd
00000170: c094 75bc 1c64 40bd 428b 853d 2ece c1bd
00000180: 36e8 953d c83d 843d 9ea8 f03d 802c 61bc
00000190: 305b 6e3d 28cf bfbc e092 0c3c 2812 b1bc
000001a0: e030 433d c68b d33d c04d bfbd a6e5 ccbd
000001b0: 3493 d23d 4c89 8c3d 1214 c6bd d014 453d
000001c0: c058 bb3b 16de 9fbd 0aab a73d d478 01bd
000001d0: d428 b23d 28e8 87bc 607d 9cbd 8881 473d
000001e0: 9a1e 803d 503e 60bd 28ac a43d 0ee8 f8bd
000001f0: 7c43 583d e61c e8bd c27f 943d c89a fcbd
00000200: c436 d53d 1b81 c73c 8859 1e3b f0aa e93d
00000210: 4160 83bd 3ca8 883d c040 ce3d 88ee 1e3e
00000220: 5a5b f9bb 5661 59bc c526 5dbd ddc1 0d3e
00000230: df5e 84bd 5e06 243d ba79 e63d d742 88bd
00000240: 0e6f 88bd f110 453e ed01 06bd 0359 a4bc
00000250: 4d88 18be d7b6 1b3b 155e 253d 4dcb 37bd
00000260: 1613 50bd d77d b7bb 0076 adbd 6642 2fbd
00000270: 99f8 b5ba b175 fabc 09be cf3d 7305 12be
00000280: 7892 76bc 6c47 59bb 515e 2ebd 58e7 95bd
00000290: 7ce4 a5bd b21a 1a3e d192 a6bd a573 62bc
000002a0: eabd ccbd eeb0 bcbd 92e8 f03c fe2c ef3c
000002b0: b3ee a13c 9b08 733e b128 8b3d 48bd 103e
000002c0: 7c2b 973d ab92 e43d 3ab5 943d 137c 2c3d
000002d0: 0a80 b53d 29fd af3d bead 02be c9d6 15be
000002e0: 417e bdbd d17d 3ebc bf2c 4bbd 648b 7cbd
000002f0: 5c85 0e3c 0de4 8ebd 7306 0fbe a516 56bd
00000300: 2f6e 863e 25a9 383e 5270 3c3e 4c73 f33d
00000310: 41a5 563e 9c21 0b3e f025 383e a85b 683e
00000320: 50c8 993e 5b8a 003e e90d 323e c4ca 273e
00000330: 39a3 e5bc ca29 833e 160c 5e3e 33a2 ac3e
00000340: a716 8a3e 0f39 643e 94e1 2d3e fd41 ab3d
00000350: 5059 a73e f574 883e 2942 5a3e e6b5 f03d
00000360: 38a3 1f3e d508 233e 594f 0a3e 3d18 f13d
00000370: a803 d9bb f5a4 b23d 9e8c 683e 3eff 863e
00000380: 1b40 493d 9e53 913e 3e6c 96bc 787f 0b3e
00000390: 6b17 873e 3d89 d83d e47d d5bc 4c7e 9d3e
000003a0: 8d95 5b3e f43e 833e ecc1 94bd 57d0 5a3d
000003b0: 20ce 173e ea57 1b3e 7180 a23e 1de8 1f3e
000003c0: 4b1d 263e 13a0 463e 9188 a93c a5cb 803e
000003d0: 45bb 7c3e 7eac f73d fcdc 3c3e d024 a03d
000003e0: 4a7e 403e 201f 833e e82d 5e3e 476d 883e
000003f0: 1f72 a1bc 6023 553e 677f 8c3d f698 9a3e
0.22545017 0.11351871 0.12035143 0.22244059 0.087328896 0.27054855 0.17919879 0.28539073
0.18463263 0.09413904 0.08740023 0.2275064 0.015556998 0.085445255 0.13965988 0.2901969
0.18767275 0.18127605 0.0045143757 0.050454836 0.11553665 0.26690075 0.094687074 0.14661032
0.13247605 0.13934357 0.18454039 0.022222009 -0.046456173 0.19423048 0.18359746 0.08887457
0.17161046 0.14567813 0.07293652 0.14451753 0.10021307 0.05071167 0.08724257 0.30332693
0.19922644 0.16430269 -0.008758194 0.22692691 0.09991991 0.17996153 0.32710943 0.13635173
0.23475616 0.3505491 0.15939671 0.16974284 0.21648492 0.21141271 0.21889481 0.12208187
0.124530695 0.2359353 0.27903804 0.17693135 0.03309622 0.11848898 0.04684198 0.12553523
-0.018506318 0.03444892 0.046498537 -0.015731797 0.12077597 -0.023469567 0.061788335 -0.009815857
-0.12416001 -0.07264677 0.047783986 0.0865652 0.111309454 -0.09225127 -0.116359234 0.07204537
-0.06637965 -0.05496888 -0.086929485 0.07950346 -0.06604712 -0.023558214 0.09190984 0.07934016
-0.048144534 -0.07740995 0.11272375 -0.07825439 -0.014989078 -0.04697047 0.06520702 -0.09463154
0.07319681 0.06457096 0.11750911 -0.01374352 0.058192432 -0.02341421 0.00857994 -0.021615103
0.047654033 0.10329394 -0.093410015 -0.100047395 0.10281983 0.06862125 -0.09671797 0.04811555
0.005717367 -0.078060314 0.0818692 -0.03160937 0.086991936 -0.016590193 -0.07641101 0.048707515
0.06255837 -0.054746926 0.08040649 -0.12153636 0.052798733 -0.11333637 0.0725093 -0.1233421
0.10410836 0.024353554 0.0024162252 0.11409557 -0.06414843 0.06672713 0.10070944 0.1552068
-0.007609767 -0.013267836 -0.05399205 0.13843484 -0.06463408 0.040045135 0.11253686 -0.06653374
-0.06661807 0.19244744 -0.03271668 -0.020061975 -0.14895745 0.0023760104 0.040372927 -0.044871617
-0.05079945 -0.005599718 -0.08469772 -0.04278793 -0.0013883292 -0.030573698 0.10143668 -0.14259891
-0.015049569 -0.0033154143 -0.042570416 -0.07319516 -0.081002206 0.15049246 -0.08133472 -0.013821517
-0.09997161 -0.09213434 0.029407773 0.029196259 0.019767141 0.23733751 0.06794871 0.14134705
0.07381341 0.11160787 0.07261129 0.042110514 0.08862312 0.08593208 -0.1276159 -0.14632715
-0.09252597 -0.011626677 -0.04960322 -0.06165637 0.008698788 -0.06977091 -0.13967304 -0.05226769
0.26255938 0.18033274 0.18402222 0.118872255 0.20961477 0.1358704 0.17983222 0.22691214
0.3003564 0.12552778 0.17388119 0.16385943 -0.028031932 0.2561782 0.21684298 0.33717498
0.26970407 0.22287391 0.16980582 0.08362196 0.32685328 0.2665173 0.213143 0.117534444
0.15589607 0.15921338 0.13506831 0.11772201 -0.0066227503 0.08722869 0.22709891 0.2636661
0.0491334 0.28384107 -0.01836216 0.13622844 0.26385054 0.10573051 -0.026061006 0.3076042
0.21443768 0.25633967 -0.0726355 0.053421345 0.14824724 0.15170255 0.31738618 0.15615888
0.16222112 0.19397001 0.020695003 0.25155368 0.24680813 0.12093447 0.18443674 0.078195214
0.18798175 0.25609684 0.216972 0.26645872 -0.019707737 0.20814276 0.068602376 0.30194825
